LatentODE/experiments/experiment_94314.ckpt (torch, 302463 bytes, 34 tensors)

encoder_z0.GRU_update.update_gate.0.weight f4 [100, 44]
00000000: b652 39be ae50 833b fd06 2d3e 92c2 863b
00000010: c7e4 c33c a4d6 053e 1059 e1bd 6ce5 953d
00000020: 475b 6abd 89b6 093e 240e b0bd 3333 3b3e
00000030: 96f5 03bd 413c 853e b4a5 a5bd 3b9b dc3d
00000040: 5ebf 283e 12d9 18bd a41b cdbb 2244 7bbb
00000050: 02dd 8f3c 4b98 95bc 6a76 58bd e09e 98bd
00000060: e4a9 cd3d aacd ad3d 9a97 4bbb c32c 65bc
00000070: 0177 17bd 29b7 38bd 978c 2d3d 2f30 abbd
00000080: 0e2c b9bd 2dc9 203e 392e 8bbc 8d10 5cbe
00000090: d633 f0bd b418 aabd 21e1 73bc 1934 bbbd
000000a0: 263f 18be 3dc7 15bd 44c7 69bc 36c3 103c
000000b0: a906 483d efed 6ebd 99b0 7ebd e797 6fbc
000000c0: 4381 b13c 1ffc a1bd 8564 c73d 8e75 a23d
000000d0: 80ed 1eb8 5425 71bd 2d22 333e b7e6 683e
000000e0: 925f e2bc 9a58 d3bd 3d08 3ebd 3386 06be
000000f0: f0b9 073e 1fc7 24bd dc71 81bd b63f 4bbd
00000100: 5543 9e3d 5451 54bd 938d adbd 7f55 b0bd
00000110: 7d50 063c 4d67 203d 3834 443e 8e52 d03c
00000120: 1ad1 36bd 57ba 203b 1d48 803c 78e6 363e
00000130: 6768 2d3d 0211 8bbd 8978 c13d be2e 373e
00000140: da31 79bd bb87 813d 2782 4f3d 7549 cf3d
00000150: 6d9e 20be 6ed6 9c3d ea32 eebc 792e e0bd
00000160: fa28 78bd ee3f dabd 12af d2bd 8c0e 5fbd
00000170: b8e7 7ebc dd12 c53c 4cf2 063d 879b 553d
00000180: 3929 28bd 69ef d53d 2961 87bd 42d7 563e
00000190: fa4c 0fbe 299a f23c 6300 52be e37d 28bd
000001a0: 8d45 af3d 97d3 aa3c 5b2e efbc 9113 e3bd
000001b0: 3f51 f7bd 2052 c13d 1d2b 54bd 61d6 263d
000001c0: 9070 3a3e 26fd 123d 9843 8ebd 524b 85bd
000001d0: 8c8c 883d 247c 8d3d 9bf6 25be 9b2f b83d
000001e0: 9ced a6bd 61c8 993d 5260 57ba d261 38bb
000001f0: 0480 123e 58d7 12bd 207c 64be aa40 593c
00000200: 4d72 9cbd 102d 11bd 403d 363e 5686 34be
00000210: 0c5e 2b3b 0b78 d8bc 2f0d 823c fa28 7c3d
00000220: 881b 2fbe 7455 e7bd 4da2 66bd 4210 36be
00000230: 873f 843e ea1a dc3d 862d 4fbc 7d1b 7bbc
00000240: c2ad 93bd 77c8 bd3c b26c 30be 66e4 0f3e
00000250: c546 9cbd e6a2 03bd c286 3e3d d88c 853d
00000260: b54f 9ebb c145 91bd c571 d4bd 7742 fbbd
00000270: 562b 453d 8b62 abbc a041 a2bc ff79 1abe
00000280: 96a3 663e a402 a73d fb5c adbd fbe5 2d3d
00000290: dda4 86bd 77f3 d33d 9ea6 05bd 1f3f 5bbd
000002a0: 7096 2f3d b1ef 983a 3983 b03b 3c8d febd
000002b0: 4034 d3bd b61a 98bd a389 303d e320 333d
000002c0: 0c30 50bd 668c ffbd 5ca6 85bd c8bb 14be
000002d0: cf64 dbbd ae62 513b 7a7d 143c a8d4 b4bb
000002e0: 7669 abbd 8608 90bd cfc7 2ebe 903e 153b
000002f0: c4d0 213a 3015 763e de4e e4bd c8e5 ebbd
00000300: ca80 8dbd 3130 093e 153d f63c 5687 31be
00000310: e695 63be b45c 06bd 5701 9abc ca07 dbbd
00000320: c5bd 943d 251a 46be b093 403d 59d1 233d
00000330: f9d3 8ebd add9 a7bd 2b38 8a3d 501d dbbd
00000340: e9f2 08be 82ec 6c3e 4fd6 90bd 89e0 67bc
00000350: 9765 d1bc c0f7 4f3d 7657 003d 28a2 e439
00000360: 04bc f3bd 3f58 fcbc c71a c63d 8a22 9c3d
00000370: dc41 0d3e bcc9 163d 1774 c63d d5ca 8f3d
00000380: bc91 fd3d 2c5b 99bd a4e2 893d c11a 81bd
00000390: 173c 1f3d c1f7 57be 6a9b 8fbc cfbc 0b3e
000003a0: f34a b93d dd9d ef3d 587f 01bd 4916 8bbc
000003b0: 7a53 693d 2ce7 9b3d 28dd 823c f437 23bb
000003c0: bef6 c8bd 923d e0bd d598 c63d aab7 023e
000003d0: 9df8 e03d fe3b 933d 53ab dabd cba1 6dbd
000003e0: d5c5 f4bd 8a0d 00be cfc2 61be 6f34 1abd
000003f0: 8a0a 55bd b9a5 76bd 2ca5 91bc 2abf a5bc
-0.18097958 0.0040074205 0.16897197 0.00411255 0.0239128 0.1307016 -0.110033154 0.073191494
-0.057215955 0.13448538 -0.08596447 0.1828125 -0.03221663 0.26022533 -0.08088246 0.10771795
0.16479251 -0.03731639 -0.0062593985 -0.003834017 0.01756144 -0.018261096 -0.052847303 -0.07452178
0.1004217 0.08486493 -0.0031065703 -0.013987723 -0.036978725 -0.04509655 0.042370405 -0.083588
-0.09041606 0.15701742 -0.016989814 -0.21490689 -0.11728637 -0.08305493 -0.014885218 -0.09140796
-0.14867839 -0.03656696 -0.0142687 0.008835604 0.048834477 -0.05833238 -0.062180135 -0.014623619
0.021668082 -0.079094164 0.097359695 0.07932578 -3.7891325e-05 -0.05887349 0.17493506 0.2274426
-0.027633462 -0.10319634 -0.046394575 -0.1313713 0.13254523 -0.04022896 -0.06320545 -0.049621306
0.07727686 -0.051835373 -0.08474269 -0.08610057 0.008197901 0.039161015 0.19160545 0.02542999
-0.04463301 0.002452513 0.015659386 0.17861354 0.042335894 -0.06790353 0.094468184 0.17888924
-0.060838558 0.06324717 0.050661232 0.10121433 -0.15685435 0.07658087 -0.029077012 -0.10946364
-0.060585953 -0.10656725 -0.10287298 -0.054457232 -0.015558176 0.024056846 0.032945916 0.052150276
-0.041054938 0.104460545 -0.06610329 0.20980552 -0.13994208 0.029614525 -0.2050796 -0.04113568
0.08558188 0.020852847 -0.029196909 -0.11087716 -0.12076043 0.09439492 -0.05179893 0.04073179
0.18207002 0.035885952 -0.06946486 -0.06508507 0.06667432 0.069084436 -0.16207354 0.08993455
-0.08150789 0.07508922 -0.0008215952 -0.0028134477 0.14306647 -0.0358499 -0.22312975 0.013260046
-0.07638989 -0.035443366 0.17796803 -0.1762937 0.0026148586 -0.026424428 0.015875427 0.061562516
-0.17100346 -0.11295596 -0.056307126 -0.1777964 0.25829718 0.10747321 -0.012645131 -0.015326378
-0.07210876 0.023166878 -0.17228964 0.14051971 -0.07630686 -0.032137774 0.046515234 0.065210044
-0.004831279 -0.070933826 -0.10373262 -0.122685365 0.04813703 -0.020921012 -0.019806683 -0.150856
0.2252334 0.081548005 -0.08465 0.042455655 -0.06574414 0.103491716 -0.0326296 -0.053526994
0.042868078 0.0011668113 0.0053867367 -0.12429282 -0.103127 -0.0742697 0.04310001 0.043732535
-0.05082707 -0.12477951 -0.06525871 -0.14524758 -0.10712587 0.0031949687 0.009063119 -0.0055185147
-0.083697245 -0.07032876 -0.17068408 0.0022772886 0.0006172771 0.2403152 -0.11147855 -0.11518437
-0.0690933 0.1339729 0.030058423 -0.17336783 -0.2222515 -0.032803252 -0.018799467 -0.10694845
0.07262758 -0.19345911 0.047015846 0.03999457 -0.06974024 -0.08195815 0.067489944 -0.1069895
-0.13373913 0.23137096 -0.07072126 -0.014152654 -0.025561137 0.050773382 0.03133341 0.00043608365
-0.119010955 -0.030803798 0.09673076 0.07623775 0.13794655 0.036813483 0.09690111 0.07021109
0.12381312 -0.07488093 0.067326814 -0.06303931 0.038875666 -0.21090604 -0.017530162 0.13646244
0.090474986 0.11700032 -0.031615585 -0.0169784 0.056964375 0.07612452 0.015974596 -0.0024905177
-0.09812687 -0.109492436 0.09697119 0.12765375 0.10984919 0.07189177 -0.10677209 -0.058015626
-0.11951796 -0.12505165 -0.2204697 -0.03764766 -0.052012004 -0.06021664 -0.017778955 -0.020232756

encoder_z0.GRU_update.update_gate.0.bias f4 [100]
00000000: 5a2f 75bb acc5 713b 0c12 91bb 6938 103c
00000010: bb16 94bb 1606 15bc 9242 4bbb 6785 bcbb
00000020: 4890 54bb 4a29 203b 66bc 373b 6db1 fabb
00000030: aeee 4c3b 6128 0fbc 37a1 01bc 7b1d 32bb
00000040: 1484 363b 923f 5a3b 2540 083c 2d04 42bb
00000050: 3ab1 05bc d027 0cbc bafd 2fbb 7e80 a8bb
00000060: a760 fb3b b5f9 27bb 6b22 2ebb 4841 ff3b
00000070: fb71 39bb a362 253b 3ed2 23bb 64de 1a3c
00000080: c2b6 2d3b 9546 37bb 7a19 003c 3ecf 46bb
00000090: 7295 06bc 06b6 fe3b 9532 213b 03cf 0abc
000000a0: 305b 063c db56 2b3b aeab 12bc 187d 00bc
000000b0: a667 2cbb 1393 033c 8465 5b3b b849 34bb
000000c0: a400 1f3b 870f 1d3c 9960 1a3c 84fa 0e3c
000000d0: 4f53 fa3b 6162 293b 1784 30bb 70f8 fa3b
000000e0: 08d9 a93b 24e2 4d3b e743 83bb f58a 113c
000000f0: f54c 253b 97e1 07bc 2833 fabb eb95 1dbb
00000100: eb55 38bb a0fc 28bb 309b 50bb b68e 1f3b
00000110: 32a0 2cbb 0e1f 59bb 074d 053c a6ab c03b
00000120: 74bb 183c 423e 083c 8262 7cbb 4d17 0fbc
00000130: 67fb 323b 0b23 113c f4c0 0a3c d04f 4cbb
00000140: 57f0 2a3b 78c2 1bbc 9d9e fa3b 51ad c4bb
00000150: f0a8 123c e3de 463b c6bc fc3b c8f8 013c
00000160: 18b4 0b3c d53a c6bb 729f a13b 69cf 0dbc
00000170: ed97 033c 0294 e03b c678 23bb 6b6f 283b
00000180: 4abf 06bc d8b6 d3bb a7cc 22bb 0273 8b3b
-0.0037412257 0.0036891503 -0.0044272 0.008802512 -0.0045193112 -0.009095689 -0.003101502 -0.0057532075
-0.003243463 0.0024438673 0.0028035878 -0.0076505453 0.0031270194 -0.008737654 -0.007911972 -0.0027178216
0.002784972 0.003330205 0.0083160745 -0.002960454 -0.00815993 -0.008554414 -0.0026854114 -0.0051422706
0.007671434 -0.0025631015 -0.0026570808 0.0077897646 -0.0028296697 0.0025235794 -0.002499714 0.009452436
0.0026506637 -0.0027965654 0.007818574 -0.0030335928 -0.0082143415 0.0077731637 0.00245968 -0.008472207
0.008200452 0.00261443 -0.008952064 -0.007842325 -0.0026306896 0.008030671 0.0033477256 -0.002750976
0.0024261856 0.009586222 0.009422445 0.00872672 0.0076393257 0.0025845992 -0.00269342 0.0076590106
0.005183343 0.0031415308 -0.0040058973 0.008883228 0.0025222872 -0.008293531 -0.007635493 -0.0024045657
-0.0028127383 -0.0025785342 -0.003183078 0.0024346537 -0.00263406 -0.0033130082 0.0081360405 0.005879837
0.009322036 0.008315625 -0.0038510864 -0.008733583 0.0027310492 0.008858453 0.008468855 -0.0031175502
0.0026083195 -0.009506814 0.0076483027 -0.0060021062 0.008951411 0.0030345253 0.0077129332 0.007932849
0.008526824 -0.006049494 0.0049323374 -0.0086554075 0.008031827 0.0068535814 -0.0024943813 0.0025701176
-0.008224318 -0.0064610057 -0.002484122 0.0042556534

encoder_z0.GRU_update.update_gate.2.weight f4 [20, 100]
00000000: d736 7dbd 67fb 8d3d 2b71 1dbc 28cf 4ebc
00000010: 5677 393d 3ac7 863d d29a 5fbe 0831 7ebd
00000020: c41b 5fbe 9b7e 3c3e e04a 70bc caf7 62bc
00000030: dfe4 943d 7a6f 94bd ef3b 643d 3d5a 9fbc
00000040: 6f5b eebd 101a 3a3e dc62 e33c cfc1 20be
00000050: 5371 e93d 5a5f 793b 7d78 01bc 632c c7bd
00000060: e92c 033c 2c27 8abd cf2a dbbc 5239 c03d
00000070: 0f3b a3bd 9531 203d 2e5f a83d 77fa 5dbd
00000080: 7215 febd 333a 74bd f65b d93d a6ee 8ebc
00000090: ad5d 38bd 59d9 0a3d 896d 003d cca1 6abd
000000a0: 2660 f33d 0e78 8f3d f5b7 073d 291c 89be
000000b0: a78e 71bd 7a11 2c3e c7df 983d 9644 cbbd
000000c0: 5117 bf3d 0711 903d c114 a0bd 00f9 c93d
000000d0: 2828 323e 2c9d bdbd e951 38be 6ac6 2e3e
000000e0: 6416 303e 95d6 f63d a41b 60be 8009 453e
000000f0: e7d4 e53d a894 dcbc 1d93 d13c 6106 f7bc
00000100: 357c c0bb 5d26 1e3c 8159 153d a219 f2bc
00000110: 4337 723d 58c8 f03d 98bd a73d 841b 003e
00000120: 9272 3d3c 987a 1f3d 547b 8ebe 52f9 0fbe
00000130: 4c7a 81bc 630c 1abe 5954 6b3d d5e2 ca3b
00000140: 07af 2d3e 8184 6dbe be79 1c3e 3ac1 e9bd
00000150: 49e8 5d3c 9323 53bd 6ce4 00bb b16d 323d
00000160: 8dd3 f33c 9b2b 4e3d fedc b13d 2fee 85bd
00000170: aeff 4e3e 4709 903e 4309 b43d 4939 0cbd
00000180: 37b1 a2bd b3b1 8e3b 7eba 8c3d c37f 863e
00000190: 71d4 f03d c37a 2ebc 2c79 803d ea76 0b3e
000001a0: ee6a e73c 835a f4bd 2409 d63c 2eae 7e3d
000001b0: bac1 b3be 0032 723d 2215 5c3e 9aa0 83bd
000001c0: a494 b1bd 8ae1 8a3e 3ce2 f7bd 7dee 023d
000001d0: 30bd 523d 17bb 6ebe 4d95 2c3d 7e8a 0cbe
000001e0: 8939 a13b 7c48 14bd 0b01 1c3e 0d29 86bd
000001f0: 211b 28be 4d88 4dbd 6918 5d3e dacd 58bd
00000200: 2da0 a33b 0bff 173e 2054 31be 165d 863d
00000210: 6ba3 3a3d 3311 a83c 2b83 e8bd 60c2 a73c
00000220: e7b7 75be 971a 05be 6d80 7f3d 7bc6 bcbd
00000230: 958b 1f3c 676b 36bd 71aa 1f3e 14bf d53d
00000240: 0973 12bd 0f72 22bd 2909 b8bd afce 52be
00000250: 6332 e43d 2839 f8bd 3e8c 8abc 80f1 f53d
00000260: c07f 06be c6d1 d33c 2f04 e03d f848 99bd
00000270: 53c9 813d 264e b9bc d207 df3d b38e 153c
00000280: c89f 38b9 2ffd 25be 1fdb 413e c79d 523d
00000290: d5fe 88bc 590a babd df74 8c3c fe05 813b
000002a0: bc74 1b3e 4272 9ebd 83a5 1f3e fae5 0e3c
000002b0: 8de8 6cbe 8712 e23d de34 073e e5f1 033e
000002c0: fbe2 dcbd 6f08 0f3c 54d6 ffbd e882 51be
000002d0: eec7 3dbd 5b8c 9fbc 6314 2abd b953 463e
000002e0: d3b1 1b3c cec6 f9bd 9590 c1bd 200b 19be
000002f0: ffe0 ee3d 2595 a4be 19da 863c 462e 84bd
00000300: 59e7 90bc 915e 52be 6fab 083e e2bc 9fbd
00000310: 1267 8c3c cb13 ab3d a87b 0c3d 0e51 a3bc
00000320: cb65 1abe f2fa 243e 3e53 b53c f86c 21be
00000330: 787e bd3d d37a 343e 6bcc 76bd 139a cebd
00000340: f59a 0fbb 5b2a eebd 44cf 01be d381 3e3d
00000350: 488d 3abd 77bc c23c ef84 8c3d 50e7 cf3d
00000360: 2875 adbd bfb9 8bbd 3dbc 07bd a5ff e8bc
00000370: b467 81bd 1082 dcbd af9e 1f3d 10a2 11ba
00000380: e583 03be d9d1 29bd 0477 623d 1f90 df3c
00000390: 0bd7 a0bd c641 92be aacb 563e 3b66 1c3d
000003a0: 01ae 14bc e622 78bd 151d 93bb 9827 5f3e
000003b0: fdd9 e6bc cb2b afbd 4d38 d0bc ad3b 42bc
000003c0: 1323 a13d a2f9 f3bc b2da 723d 1a2a 98bd
000003d0: 1b18 42bd 5468 f7bc c28d 09be 5608 a53c
000003e0: 37ff 01be 61f3 0d3e cb26 09be c400 d63d
000003f0: eb0b 8cbd d653 0dbe da79 d8bd 1776 4dbd
-0.061819877 0.06932717 -0.009609501 -0.012622632 0.045279823 0.06580968 -0.21836403 -0.06205848
-0.21787935 0.18407671 -0.014666289 -0.013853023 0.07270216 -0.07247825 0.05572122 -0.019452209
-0.11638533 0.18174005 0.0277571 -0.15698932 0.11398568 0.0038051219 -0.007902262 -0.09725263
0.008006313 -0.06745753 -0.026753811 0.09385933 -0.07970249 0.039109785 0.08221279 -0.05419394
-0.12406434 -0.059625816 0.10613243 -0.01744778 -0.04501121 0.033898685 0.03135446 -0.057283208
0.11883573 0.070053205 0.03313442 -0.26779297 -0.058973935 0.16803542 0.07464557 -0.09925191
0.09330619 0.07034498 -0.078164585 0.09861946 0.17398131 -0.09258494 -0.17999996 0.17067876
0.17196041 0.12052647 -0.21885544 0.19241905 0.112222485 -0.026926354 0.025582844 -0.030154409
-0.0058741816 0.009652701 0.03646231 -0.029553238 0.059134733 0.117569625 0.08190459 0.12510496
0.01156296 0.038935274 -0.27828467 -0.14059952 -0.015805386 -0.15043788 0.057453487 0.0061915913
0.16961299 -0.23195077 0.15280816 -0.11413808 0.013544151 -0.051547598 -0.00196674 0.04356164
0.029763961 0.050334554 0.08684729 -0.065395705 0.20214722 0.28132078 0.08790829 -0.03423432
-0.07943957 0.0043546795 0.06871508 0.2626935 0.1175927 -0.010649386 0.06273112 0.13619581
0.02824923 -0.11931326 0.026127405 0.06217783 -0.3510874 0.059129715 0.21492437 -0.06427117
-0.08670929 0.27125198 -0.12103698 0.03196572 0.051449955 -0.23313557 0.04213457 -0.13724706
0.004920189 -0.03620194 0.15234773 -0.065507986 -0.16416599 -0.050178815 0.21591343 -0.05293069
0.0049934597 0.14843385 -0.17317247 0.065607235 0.045566004 0.020516014 -0.11353143 0.020478427
-0.23995934 -0.12998424 0.062378336 -0.09217545 0.009737869 -0.04453602 0.15592362 0.10436836
-0.035754237 -0.039659556 -0.08986122 -0.20586656 0.11142423 -0.12120277 -0.016912576 0.12008953
-0.1313467 0.025856864 0.10938298 -0.07484621 0.06337228 -0.022620272 0.108901635 0.00912826
-0.0001760713 -0.16209863 0.18931244 0.05142 -0.016723076 -0.09084005 0.017145572 0.003937482
0.1518125 -0.07736637 0.15590481 0.008721823 -0.23135586 0.1103869 0.13203761 0.12885244
-0.107854806 0.008730038 -0.12492052 -0.20460093 -0.046333246 -0.019476106 -0.04152335 0.19367875
0.009502846 -0.12196122 -0.09451405 -0.1494565 0.11664008 -0.32145038 0.016461419 -0.064541385
-0.01768844 -0.20543887 0.13346647 -0.077996984 0.017138992 0.083533846 0.034297615 -0.01993611
-0.15077893 0.16111353 0.02213442 -0.15764225 0.092526376 0.17624979 -0.060253542 -0.10087981
-0.002191243 -0.116291724 -0.12676722 0.04651053 -0.045544893 0.023771508 0.068612926 0.10151541
-0.084696114 -0.06822538 -0.033138502 -0.028442213 -0.06318608 -0.10766995 0.03896969 -0.000555546
-0.12843283 -0.041459892 0.055289283 0.027290402 -0.07853516 -0.28565806 0.20976129 0.038183432
-0.009074689 -0.060580157 -0.004489551 0.21792448 -0.028180117 -0.08553275 -0.025417471 -0.011855048
0.07868018 -0.02978212 0.059290595 -0.07429905 -0.04738627 -0.030201115 -0.13432983 0.020145576
-0.12695013 0.13862373 -0.13393705 0.10449365 -0.06838211 -0.13801512 -0.10570116 -0.050161447

encoder_z0.GRU_update.update_gate.2.bias f4 [20]
00000000: dabc cb3b e0c1 53bb b451 fa3b 30d0 02bc
00000010: efb8 323b 51cd 11bc e316 febb 82a4 09bc
00000020: d986 2e3b 76f3 033c 5d89 2c3b 4cd0 e63b
00000030: 86e4 fcbb 064c eb3b 4ded fabb 2e68 233c
00000040: 059b 0c3c dad7 e6bb c3b8 c53b 463a 083c
0.006217581 -0.0032311603 0.0076391343 -0.007984206 0.0027270874 -0.008899049 -0.007754193 -0.008401038
0.0026630668 0.008053651 0.0026326992 0.007043874 -0.007717672 0.0071806936 -0.007657683 0.009973569
0.008581881 -0.0070447745 0.006033988 0.008314675

encoder_z0.GRU_update.reset_gate.0.weight f4 [100, 44]
00000000: 20bb 24bd d17b 34bc 2107 1e3d 04c2 52bc
00000010: 2979 b63d ab37 cd3d dfe3 ad3d 0068 aabd
00000020: f8df 2c3d 2e06 e7bc b1b5 d2bb 78a2 253e
00000030: edb8 84bd 0cea eb3c 3395 afbd cd48 943c
00000040: 5d2d cd3d 0e5a be3d 3426 e73c 9e14 813d
00000050: 0d45 bd3d 753e 13bd c6bf 6fbc 6d4a d1bd
00000060: a26a 3ebc e288 52be 9bb2 f2bd 0433 04be
00000070: 10c7 abbc 956b c3bb 8902 81ba f0bb acbd
00000080: 3e2b 9bbd a1d0 f33c 6a14 013d c59a 17bd
00000090: fe66 1b3d f700 3fbe dac9 f43b 9c94 353e
000000a0: 2118 823d 9145 8b3d 68e1 8f3c 8c9e 3a3e
000000b0: 282b 63bd dde3 7d3d 389c a2bd 5f44 3c3e
000000c0: f0ab f0bb 6c45 c43c edcf 413d 98a6 a1bd
000000d0: 85d9 0d3e a801 d6bd 8e92 8d3d c67d 43bd
000000e0: 4a51 16bc 131d 2cbd c946 08be 7368 423d
000000f0: 54c8 f3bd beff 2d3d d201 c83d 8c26 91bc
00000100: 244e 27be 5084 62be 8dae cabc 764e 0b3e
00000110: 1c07 f23d 1f68 ddbd 47e6 07bd dcfe 653c
00000120: 71d6 d03d fb64 00be f5b8 c7bd ea72 583c
00000130: 161d d13b e9cf 803e f146 edbd fe53 3fbe
00000140: aa64 c3bd bfa8 36bd 4cc9 a9bd 8668 7dbc
00000150: 9775 74be 7cfc b63c 02ef 7dbc 0fbd cc3c
00000160: 5eb3 003d 589b 403c 46ff 60bd 5c4f 803d
00000170: bf89 c2bd b6b7 5a3d bbef 7d3d 5971 b5bc
00000180: 77b8 48be 4b6e 153d 0f53 4d3d d852 9b3e
00000190: 217c e43d 9b65 253e b51c bebd 9acc 19bc
000001a0: f691 543d b4ac aebd 905c 8a3d 37df 4dbd
000001b0: 15b4 193d 651e 85bc 3c07 753d 0716 6d3d
000001c0: ca2c b5bd f2c3 373d b6a6 7cbd 93f6 ab3c
000001d0: f910 5ebd c492 6ebe 598b 75bd 48c0 14be
000001e0: 1360 a7bc ab80 d3bd cfb0 71bc f575 47bc
000001f0: f680 ae3e 865d cd3d 6bc6 883c 7a09 babd
00000200: dc1d 773d 7d53 60bd d3db ee3c a152 003e
00000210: dc0f a0bd 966c a53e c56c 72bc 62d9 313b
00000220: 8e8f eb3d 68f2 593a a7c3 13be 06bc a93d
00000230: b4f2 233d e5c7 bb3c d4e1 b8bd 7a88 b33c
00000240: 4226 563e e919 d13d fc50 163e a197 92bd
00000250: 17aa f8bd f818 45bd 08e5 d7bd cb90 243e
00000260: 49c2 b03d b166 803e f502 5a3c e3c2 273d
00000270: b6e1 a73d 15db c53d b34b 923c 3778 af3d
00000280: a97d 063d 3214 20be 3689 573d d9a3 7bbd
00000290: d5bf 773e 18dd 773b ce2c 623d 1ee7 143e
000002a0: 8730 0e3e 25ab 15be eef1 623e c5cb 8a3d
000002b0: 7d22 34bd cda7 133d 2b6e dbbd a20d 2dbe
000002c0: 0d13 a7bd 9624 613d 8a0d 54bd edaf 693d
000002d0: beca b6bd e788 84bd 0c78 10bd 13bc eabd
000002e0: cacd f43d a450 86bd c365 12bd ceb1 adbd
000002f0: 3b7b 133e 2181 973c 9d85 b93d 44b5 063e
00000300: 606f 91bd ab35 203c 10cd 49bd cdf4 7e3c
00000310: 8b52 25be 1fa2 873d 966a 093d 64ea 92bd
00000320: cb4d 19be 6d8b b7bd 74d1 843a eeb5 623c
00000330: 6bd9 19bd d1af adbd 9080 913d 1e0f 2dbe
00000340: efec c03d bbf1 3dbc 8b2b f83d 4f77 293d
00000350: 8d35 53be ff6c d33b bf1a 96bd 33a4 493c
00000360: 938f 983d 165f 5f3d 826f d43b afa5 bcbd
00000370: 10da d53d cc86 363e e885 3c3e 5d34 63bd
00000380: 90d9 863d 284f 4fbd 8b96 d03d 4efb 0dbe
00000390: 16ea 94bd 77e1 17bd 9e1f 82bd 7df7 533d
000003a0: 2245 573e 1cc6 5a3e 81fa abbd 5a82 a5bd
000003b0: f4a6 bd3d 58f9 32be 4eee 0c3e 3414 c93c
000003c0: 96fe 433d dfe4 b23c b8aa 323e 9002 c4bd
000003d0: aef4 0fbd dc2e e0bc fdd6 25bd 048a 103e
000003e0: 53a5 17bc e663 9abd 8ee2 95bc 9639 f6bd
000003f0: 7379 40bd 627a a23d 9755 7f3e 7640 f53d
-0.04021752 -0.011015848 0.038581017 -0.01286364 0.08909828 0.100203834 0.084907286 -0.08320618
0.04220578 -0.028201189 -0.0064303507 0.16175258 -0.06480584 0.028798126 -0.08573379 0.01810112
0.10018418 0.0929452 0.028216459 0.063027605 0.09241686 -0.035948236 -0.014633125 -0.10219274
-0.011622103 -0.20560029 -0.118504725 -0.12910086 -0.020968944 -0.0059637525 -0.0009842674 -0.08434284
-0.07576607 0.029762568 0.03151361 -0.037012834 0.037940018 -0.18652712 0.0074703516 0.17732471
0.063522585 0.06800378 0.017563537 0.18224543 -0.05546108 0.061984885 -0.079399526 0.18385457
-0.0073447153 0.023958884 0.047317434 -0.07893103 0.13852508 -0.10449535 0.06912719 -0.04772737
-0.009174654 -0.042019915 -0.13308252 0.04746289 -0.11903444 0.042480223 0.09765972 -0.017718576
-0.16338402 -0.22120786 -0.024741435 0.13604149 0.11817762 -0.10810875 -0.033178594 0.014037814
0.101971515 -0.12538521 -0.09752075 0.013210991 0.006381641 0.25158623 -0.115857966 -0.18684384
-0.095406845 -0.044594523 -0.082903475 -0.015466815 -0.23872982 0.02233719 -0.015498878 0.024992494
0.031421058 0.011755787 -0.054930948 0.062651366 -0.09498929 0.053397857 0.061996203 -0.022148775
-0.19601618 0.036482137 0.05012804 0.30336642 0.11156488 0.1615204 -0.09282819 -0.00938716
0.05189701 -0.08529034 0.06755936 -0.050261702 0.037525255 -0.016249845 0.059821352 0.057882335
-0.088464335 0.044864602 -0.061682425 0.0209916 -0.054215405 -0.23298174 -0.059947345 -0.14526474
-0.020431554 -0.10327276 -0.014751627 -0.012174119 0.34082764 0.10027604 0.016696176 -0.09083839
0.06033121 -0.05476712 0.029157555 0.1253152 -0.07815525 0.32309407 -0.0147964405 0.0027137627
0.1150199 0.00083140144 -0.14430104 0.08287816 0.04002638 0.022922466 -0.09027448 0.021915663
0.20913032 0.1021002 0.1467933 -0.07157827 -0.12141817 -0.048119515 -0.10541731 0.16070859
0.08630807 0.25078347 0.013306369 0.040957343 0.08197348 0.09660927 0.017858362 0.08567851
0.032834683 -0.15632704 0.05262109 -0.061435554 0.24194272 0.003782099 0.05521851 0.14541289
0.13885699 -0.14616068 0.22162601 0.06777147 -0.043978203 0.0360487 -0.10714372 -0.16899732
-0.081579305 0.05496653 -0.051770724 0.05705254 -0.08925389 -0.064714245 -0.035270736 -0.114616536
0.11953314 -0.0655835 -0.03574158 -0.08481179 0.14402477 0.01849419 0.09058688 0.13155085
-0.07101321 0.00977842 -0.04926783 0.015561295 -0.16144769 0.06622719 0.033548914 -0.07173613
-0.14971082 -0.0896214 0.0010133223 0.013837321 -0.03756086 -0.084808 0.071045995 -0.16900298
0.094201915 -0.011593278 0.1211768 0.041373547 -0.20625897 0.0064522023 -0.0732932 0.012307215
0.074492596 0.05453404 0.0064830193 -0.09211289 0.10441983 0.17824858 0.18410456 -0.05546986
0.065844655 -0.0506126 0.10184964 -0.13865396 -0.07271211 -0.037080254 -0.06353687 0.051749695
0.21022466 0.21364635 -0.08397389 -0.08081503 0.092603594 -0.1747793 0.13762781 0.024545766
0.047850214 0.02183765 0.17447937 -0.09570801 -0.035145454 -0.027366094 -0.040488232 0.14115149
-0.009255725 -0.07538585 -0.018296506 -0.120227024 -0.046990823 0.07933499 0.24934994 0.119751856

encoder_z0.GRU_update.reset_gate.0.bias f4 [100]
00000000: d2d3 9f3b bde9 4abb 9af1 2cbb b1e0 b2bb
00000010: 9205 143c 7197 003c aefe 2cbb ade5 013c
00000020: 567d 0cbc d4cd 623b 157b 3a3b a849 1a3c
00000030: cc77 89bb ec6d 043c ecd7 2abb dcfc 693b
00000040: 4e05 05bc 44a4 083c f794 d2bb aabf 3cbb
00000050: 626f 43bb f65b 393b 2687 153c 07d3 c03b
00000060: 7af4 223b 69cf 33bb c839 493b 1e09 03bc
00000070: e4f0 febb c88a 033c 7419 07bc 581d 1f3b
00000080: 8415 9abb fdd2 383b 451d 1dbb a975 2d3b
00000090: ed78 ec3b e9c3 50bb f7bc 49bb 4cf5 683b
000000a0: 74b6 fb3b a64c 5dbb 7acf 22bb 3c93 433b
000000b0: 3059 253b a0f9 2d3b 675e 04bc cf04 b8bb
000000c0: 87ad 273b 81ae 39bb ff5f a7bb 2977 a33b
000000d0: ee46 89bb f291 26bb 7eda 22bb 9562 39bb
000000e0: e41d 02bc 59e0 21bb c5a8 6fbb 8303 20bb
000000f0: 18ce 4b3b 00e8 7a3b 34d7 a9bb f849 23bc
00000100: 3a1f 7d3b 9aeb 8fbb 9bfe fabb 5302 10bc
00000110: 6a95 51bb 5e57 373b 23f0 fc3b fa09 48bb
00000120: ca17 48bb f390 923b 2720 033c 9288 723b
00000130: a487 62bb 5c9b 0c3c 0f1f 1fbb 28a8 30bb
00000140: b7ad 1dbb c9ec 293b 5330 053c 61a1 5cbb
00000150: 78d3 fb3b 2779 023c 5500 3ebb 1741 3cbb
00000160: 38c2 2d3b ef2a 3a3b 6018 083c bffe 223c
00000170: ee6e 913b a454 033c 18f5 42bb d8d4 0c3c
00000180: 2b1e 31bb 46be fabb 55c1 443b b050 113c
0.004877546 -0.0030962073 -0.0026389123 -0.005458914 0.009034531 0.007848606 -0.0026396918 0.007928294
-0.008574804 0.0034607546 0.002845471 0.009416975 -0.004195189 0.008082848 -0.002606864 0.0035703694
-0.0081189405 0.008339945 -0.0064264494 -0.0028800764 -0.0029821028 0.0028283573 0.00912646 0.0058845314
0.0024864958 -0.0027436859 0.0030704606 -0.007997779 -0.0077801812 0.0080286935 -0.008245815 0.0024278965
-0.004702272 0.002820193 -0.0023973745 0.0026467836 0.007216564 -0.0031855053 -0.0030782798 0.00355466
0.007681662 -0.003376761 -0.0024842904 0.0029842397 0.0025230162 0.0026546493 -0.008079148 -0.0056158076
0.0025585608 -0.0028332772 -0.005107879 0.00498857 -0.0041893637 -0.002541658 -0.002484947 -0.002828752
-0.007941697 -0.0024700372 -0.00365691 -0.0024416156 0.0031098183 0.0038285255 -0.005183125 -0.009966366
0.0038623349 -0.0043920996 -0.007659746 -0.008789617 -0.0031979927 0.002797566 0.007719056 -0.0030523525
-0.0030531758 0.0044728457 0.008003271 0.0037007672 -0.0034565711 0.008581962 -0.0024279987 -0.0026955698
-0.002405984 0.0025928488 0.008129197 -0.0033665525 0.007685121 0.007963455 -0.0028991897 -0.002872532
0.0026513468 0.0028406938 0.008306593 0.0099484315 0.0044382727 0.008015785 -0.0029748138 0.008595668
-0.0027026038 -0.007652077 0.0030022461 0.008869335

encoder_z0.GRU_update.reset_gate.2.weight f4 [20, 100]
00000000: 723d 8c3d d5f0 f4bd 1565 433e 0094 ae3c
00000010: 607f 023e 58ff f23a fb47 683d 0e93 b53d
00000020: 7c08 753d 2071 dbbd 845a 06be 7eef b33d
00000030: a9e7 1d3e 2056 06be ec53 08bd d236 cbbd
00000040: bfd2 633d 822a 743e d1c0 fb3c b138 9c3d
00000050: b6c1 ba3c 80a0 3b3d b847 053d 0ac2 84be
00000060: b874 493a b0b5 61bd 0ca5 36be 22d9 6e3e
00000070: 3e8d 1c3e 7a4d c1bd 2c1b 583d 4d2f ecbd
00000080: f4e5 bb3d cbb4 68be 7cb3 423d 3f6a 9b3b
00000090: f150 efbd c5cd 483e 6fef 5abd 45e1 2fbd
000000a0: 8164 85be 5998 bd3d 64a3 2fbe 53ec 903d
000000b0: eb53 143d b057 223d 05e8 053e c060 793c
000000c0: 8892 813d f1a7 f93d df64 86bd 8e21 86be
000000d0: ee98 9fba 23dc 053e c2a4 033d 688a 06bc
000000e0: 064d c73d 0e4e 9bbc 6cad 7abd 1112 2dbd
000000f0: 3abf 41bc 8894 c4bd 2e15 59bc c733 2d3e
00000100: 74e3 a4bd 7889 b93d f555 c93d 52e3 e5bd
00000110: 3ea3 113e bd55 ad3d b5c3 b2bd faa9 5dbd
00000120: 4257 2fbd ce30 05be 843b a33c 438f 81bb
00000130: 7d5f 463b ef9e efbd 9ffe 9f3d d182 3ebd
00000140: 381d cd3d edb6 c93b 62fc 48be f761 2fbc
00000150: 4c34 c33d 2429 84bd 802f 403e 7758 c4bc
00000160: dfee 23be 5ec8 10be 8750 89bd c936 f0bc
00000170: 9c70 093d dad1 0ebd 32a3 ac3d f56c 0fbd
00000180: 5ad8 263e 43c9 b0bd b2e2 32bd 0cf8 c3bd
00000190: dadd 15be 70d9 9d3d e09d fcbd 2cc8 ab3e
000001a0: 88c2 2a3d 6ffb a03c 1f05 7cbd 9dd3 423d
000001b0: 9c7e 8d3d 795e 38bb 7bdc 27be d607 29be
000001c0: 8e94 a93d a202 263c 24b7 98bd 2e61 d83c
000001d0: 6ac9 a63d 9942 d1bd 31f2 5b3d c9d1 95bd
000001e0: ba2d 073e 30ab 063d b4bd d9bd 0465 3bbe
000001f0: 7c70 67bc beba 213e c88c a5bc 017e b2bd
00000200: b5be 503e ac18 2a3d 344e 2bbd 11cf 653e
00000210: 85e9 e53c e377 9c3d aac9 22be 3d86 5e3c
00000220: 80cd c3bd 7e67 c3bd d394 b83d 0af2 f9bd
00000230: 9953 143e 3a44 fcbc 98a8 dd3c 9faf cbbd
00000240: 37b4 debd cc7f 0c3e f452 28be de12 8b3d
00000250: af9c 3a3e ef75 a3bc 4e66 0d3d df1e 58bd
00000260: 3808 273c 15b7 7abe 89ea 4fbd ea0c e1bd
00000270: e996 04bd 76af b73d 0d9a ab3d c913 2fbd
00000280: e9ad 313c 31b7 20bd d3ca 7b3d 40c9 6abc
00000290: fee5 4fbd 1110 1abd 6e92 b93d f42b 123e
000002a0: 006c 383e 8062 7138 98fb 0ebe fd0c ba3c
000002b0: 79d7 a8bc def3 063d 75a0 63be b50c 93bd
000002c0: b3de cb3d 91d6 ffbd e03c b6bd 0744 cfbd
000002d0: 9a1f 98bd 5a78 f73d 7013 04be f8da 05be
000002e0: 058f 57be ddee 85bd 5a44 76be 94af be3c
000002f0: b404 ff3d c3c3 703b 2200 5fbe 1041 d1b9
00000300: a938 e83c 0f27 7abd d4ff 4bbd e29b 01bd
00000310: 8af6 bc3c d48e 6a3d e597 90bd a70b 3a3d
00000320: 48ce a53d de3f 34be 05e3 55bc 0480 cbbd
00000330: 03ae 67bc 132a 3c3e 4100 663b 1d80 c93d
00000340: 531e 32bd ec8a ef3d 56e2 7b3d f251 823d
00000350: f847 103e e6db 3abd d7c7 47be f595 b43d
00000360: d9d2 53be e0b6 d73d adaa f4bd f8be 8abb
00000370: 7ea1 bb3c 9e5d 973a 0be0 dfbd 21fe 643d
00000380: 1857 b0bd 401a 8abd 6978 3c3d 1c6e 26bc
00000390: 4fce e23c 225f b5bd cbdf efbd 8e54 223e
000003a0: 6593 08be c081 913d e0ee d73c fa82 fa3b
000003b0: 2e9a fe3d 94ae 73bd aad2 8fbc ed96 f13d
000003c0: 20d2 8f3d 7459 9cbd dc6a 8b3a 5ff7 e3bc
000003d0: 1fbc d23c 1d70 b13d 0bd9 48be 215a 27bd
000003e0: b9a9 b2bd e57e 563d 92a8 36be 6911 29be
000003f0: 06d8 d1bb 8a50 f33d 1601 2cbe 92b0 673b
0.06847657 -0.119599976 0.19081528 0.021310806 0.12743902 0.0018539233 0.05670927 0.08865939
0.059822544 -0.10714936 -0.13120466 0.08785914 0.15420403 -0.13118792 -0.03328316 -0.099225655
0.055620905 0.2384434 0.03073159 0.076280005 0.022797447 0.04580736 0.0325391 -0.2592929
0.0007684934 -0.05510491 -0.17836398 0.23325017 0.15288255 -0.094386056 0.052760288 -0.115324594
0.091747195 -0.22725217 0.04753445 0.00474289 -0.1168536 0.19609745 -0.053450998 -0.042939443
-0.2605324 0.09257574 -0.17152172 0.07076325 0.036212843 0.039634407 0.1307679 0.015220821
0.06326777 0.121902354 -0.065622084 -0.26197475 -0.0012176314 0.13072257 0.032139547 -0.00821171
0.09731488 -0.018958118 -0.061200544 -0.042253558 -0.011825377 -0.095986426 -0.013249679 0.16914283
-0.08051196 0.09059423 0.09830848 -0.112249985 0.14222428 0.08463619 -0.087287344 -0.05411718
-0.042807825 -0.13006899 0.01992584 -0.0039538457 0.0030269318 -0.11700236 0.07812237 -0.046511475
0.10015339 0.0061558397 -0.19627526 -0.010704509 0.09531459 -0.064531595 0.1876812 -0.023967965
-0.16009091 -0.14138934 -0.067048125 -0.029322999 0.03355466 -0.0348681 0.084295645 -0.03501602
0.16293469 -0.086321376 -0.043673225 -0.095687956 -0.14635411 0.077074885 -0.123348 0.33551157
0.041689426 0.019651143 -0.06152832 0.04756509 0.069089144 -0.0028132482 -0.163927 -0.16506895
0.08280288 0.010132464 -0.07456806 0.026413526 0.081438854 -0.102177806 0.05369777 -0.07315404
0.13201037 0.0328781 -0.10631886 -0.18300253 -0.014125939 0.15793893 -0.020208731 -0.087154396
0.20385249 0.041527435 -0.041822627 0.22442271 0.028065452 0.07640054 -0.15897241 0.01358181
-0.095606804 -0.09541224 0.09012761 -0.122043684 0.14485015 -0.030794252 0.02705793 -0.099456064
-0.10874217 0.13720626 -0.16437894 0.06790708 0.18223833 -0.019953696 0.034521393 -0.052763816
0.010194831 -0.24483903 -0.05076078 -0.10988791 -0.03237048 0.089690134 0.08378992 -0.042743478
0.010844686 -0.039237205 0.061472725 -0.014330208 -0.050756447 -0.03761298 0.09061132 0.1427458
0.18009949 5.7550613e-05 -0.13963163 0.022711271 -0.020610558 0.032947414 -0.22229178 -0.07180158
0.09954586 -0.12492097 -0.0889833 -0.10120397 -0.074279025 0.12083502 -0.1289804 -0.13071811
-0.21050651 -0.065397 -0.24049512 0.023277082 0.12452069 0.0036737777 -0.21777394 -0.00039912062
0.02834733 -0.061072405 -0.049804524 -0.031642802 0.023066778 0.057265118 -0.070602216 0.04542127
0.08095986 -0.17602488 -0.013054614 -0.099365264 -0.014140609 0.18375425 0.0035095366 0.09838889
-0.04348595 0.11696419 0.061495148 0.06363286 0.14089954 -0.045619868 -0.19509827 0.088176645
-0.20685901 0.105329275 -0.11946616 -0.004234191 0.022904154 0.0011548286 -0.10931405 0.05590642
-0.08610362 -0.06743288 0.04601327 -0.010158088 0.027686266 -0.08856036 -0.11712607 0.15852568
-0.13337477 0.07104826 0.026359022 0.007645008 0.12431751 -0.059492663 -0.017556507 0.11796365
0.070225 -0.07634249 0.0010636705 -0.027827917 0.025724469 0.08663962 -0.19614045 -0.040857438
-0.08723778 0.05236711 -0.17837742 -0.16510548 -0.006403926 0.11880596 -0.16797289 0.0035353047

encoder_z0.GRU_update.reset_gate.2.bias f4 [20]
00000000: d477 04bc 368f 06bc 1136 a83b 0cd2 043c
00000010: f2a8 12bc 5143 363b 5341 58bb 2eed 06bc
00000020: 9367 3c3b 5980 1ebc f158 1f3b b725 303b
00000030: f42a 1ebc 4c3c 00bc 7260 76bb 81bc 3abb
00000040: 9960 423b 62b0 10bc 9eec 3fbb 8a8f f9bb
-0.00808521 -0.008212855 0.0051333983 0.00810672 -0.0089514125 0.002781112 -0.003299792 -0.008235259
0.0028748258 -0.009674155 0.0024314488 0.0026877949 -0.0096537955 -0.007826876 -0.0037594107 -0.0028493705
0.0029659627 -0.008831115 -0.0029285322 -0.007615988

encoder_z0.GRU_update.new_state_net.0.weight f4 [100, 44]
00000000: fab1 813d ac21 b83c 21b6 53be 391f 213d
00000010: fc57 413c 72b8 a4bd 28d9 6e3e 894c 61bd
00000020: 907f 1d3d 2d61 63bb 8d9e dabd cfb1 0cbd
00000030: bc0a f03d c6fc 623d dc38 b23d 971e 03bd
00000040: 0a9e 2b3e d5f2 e9bd 908e 163e 20f6 9fbb
00000050: dd2c 5cbe 6ca9 f63d b845 76bd 1444 31bc
00000060: edd3 2a3d cc4e 60be 1ba3 b43d 991b 0a3e
00000070: a149 833d 65ab 08be 43e0 9c3d 325a a03d
00000080: d0e2 5b3d 5c57 cfbc f7b5 223e 9983 b73d
00000090: 2456 bc3d 1d79 8b3d 1a74 b6bc eb9d 8abd
000000a0: aa68 e13d b57c c3bb 6481 65be a0e7 cd3d
000000b0: dffd 963d a3d0 ef3d f3cd 1dbe 3019 80bd
000000c0: 3c1b 0ebe d813 ec3d 10f1 62bd 445d 4fbe
000000d0: 5bd3 28be 4232 213d 5990 373d 1de5 b3bd
000000e0: db61 c4bd 2e93 823d 5ab8 263d 3847 903b
000000f0: df8c 56bd 1bc9 23bd abea 10be e09b f73d
00000100: 5efc bbbd b151 b43c aad1 3c3e 0755 08bc
00000110: 56e8 ec3d eb85 90bd 8f7a 75bd 727c 3f3c
00000120: 1079 ab3d 66e3 c7bd b7e3 843d 918a 7abd
00000130: ef8d 203d 4149 03bd aba8 493e 1419 52bd
00000140: 458c cbbd faf8 f9bb 2cb8 ad3c cbf4 c73d
00000150: 67ef 2dbe 1b82 39be fa4a b63d ce11 a5bd
00000160: c316 99bd 972c 9dbb 7497 d13d b612 bf3d
00000170: d91f 56be c02c acbc c0b2 a4bd e685 ecbb
00000180: 5406 59bb b1a0 133d b4d0 353e e015 ab39
00000190: 296d 2cbd 234d 58bd 0703 5c3b e6d8 2ebc
000001a0: 2aed 4fbe 4982 3ebd 08a1 a3bd 5017 5cbb
000001b0: 19f1 d33d 0386 07bd 6267 be3d 3bd4 bfbd
000001c0: 0763 aebc d469 0b3d bf15 503d 88ce 0f3d
000001d0: ced2 5ebc c926 9bbd 63fe 103d c450 2fbd
000001e0: dfb0 eabc c322 ccbd f7b4 9c3d f4c0 423e
000001f0: 44af 24be d013 71bd ebef e33d fdc3 ecbd
00000200: 5909 95bd 7c07 063c 4382 843d 069f 463c
00000210: 9347 92bc b3a7 7dbd 6a82 dd3d 94a8 2f3d
00000220: e7b4 48bd 03b4 55bd ecd5 0abe 9b2a 1a3e
00000230: 735e 843d 4223 22bd ae12 95bd f7b1 3f3e
00000240: 456d bebb f6ca 2e3d 8673 813d 467f 933d
00000250: ac91 21bd 884e 74bc 8c8e 25bc beef c8bd
00000260: 7fd7 d53d 18de d93b 5256 27be a207 943d
00000270: 7236 ae3d a0e4 58bd 3109 763d e5ec 2ebc
00000280: 1c24 4bbd 6c86 af3d 7eb3 b9bc e431 14bd
00000290: f8cf 013e 31ec c0bd 35ef 0d3d bf69 483e
000002a0: 3dce a33d fdfa 66be fb55 4e3d 4415 a0bd
000002b0: 5f59 02bd 3e02 adbd 70b1 10bd a849 16be
000002c0: 2c5d a8bc f849 1d3e 8975 213e 2c8f 853d
000002d0: 7f71 bb3d 392e 31be 0423 a1bd 50e2 863c
000002e0: aa48 34bd b64f c7bd 35c2 abbd 5ff2 f93c
000002f0: ab32 05be 5f55 97bd f48f 96bd 9465 323c
00000300: f55b 84bd 70ff e1bd c091 cf3d 6489 d73d
00000310: 8b7e 0d3e 200f 37bd c6e7 42bc 8635 423d
00000320: 3e1d 343c 70ad 05bd d8a6 9c3d 38cb a5bd
00000330: b4ed 993d 370b 6abd abf9 133e 1d01 1abe
00000340: 069a 43bd a0e4 c03a e358 06be 52e3 83bd
00000350: e661 d93c f3ae 61bd d540 263d f653 023d
00000360: 38dc 0d3b 8764 a03d ca46 50be 13f2 c7bd
00000370: 669c 333e 0ea3 9c3d 09fd 843d 52d3 6d3d
00000380: e29c bdbd 7b2d bdbd 0049 923c a59a ed3d
00000390: 229b d5bd 9059 8d3d 4e72 8e3e 400b fcbd
000003a0: 3a28 e0bb 158c 99be 895d da3c 5ece 0dbe
000003b0: 48f5 4b3d bb8b 7abd 013c 6a3d 3b7a 08bd
000003c0: 0a91 353d 5b18 9b3d c708 aabd c8b9 efbd
000003d0: 7e78 523c d21f 913d bd04 dd3c f447 1f3d
000003e0: ca96 c33d 70ff 013e 2130 953d f53a 6ebe
000003f0: a072 84bd 44f3 29bc c7c1 d6bc 6d11 13be
0.063327745 0.022476994 -0.20674945 0.039336417 0.011800762 -0.08042993 0.23325026 -0.05500463
0.03845173 -0.0034695372 -0.106747724 -0.03434926 0.117207974 0.055416845 0.08702251 -0.032011595
0.16759506 -0.1142327 0.14702821 -0.0048816353 -0.21501489 0.120440334 -0.060125083 -0.010819454
0.041706014 -0.21905059 0.088201724 0.1348709 0.06410528 -0.13346632 0.07659962 0.078297034
0.053683102 -0.02531021 0.15889727 0.08960647 0.091961175 0.0681021 -0.022272158 -0.06768402
0.11006291 -0.005965794 -0.2241264 0.100539446 0.07372641 0.11709716 -0.15410595 -0.06254804
-0.13877577 0.115272224 -0.055405676 -0.20250422 -0.16486876 0.03935457 0.044815395 -0.08783934
-0.09588977 0.063757285 0.040703155 0.004403021 -0.05238044 -0.03998671 -0.14152019 0.12090278
-0.091789946 0.02201161 0.18439355 -0.008321053 0.11567752 -0.07056793 -0.059931334 0.011687385
0.083727 -0.0976017 0.06488746 -0.061167303 0.03919786 -0.032052282 0.19693248 -0.051293448
-0.09938864 -0.0076285573 0.021205984 0.097634874 -0.16985856 -0.18116038 0.089010194 -0.080600366
-0.074750446 -0.0047965753 0.102339655 0.09329741 -0.20910586 -0.021017432 -0.08041906 -0.0072181104
-0.0033115344 0.03604192 0.17755395 0.0003263196 -0.04209629 -0.05280794 0.003357114 -0.01067183
-0.20305315 -0.04651097 -0.07989699 -0.0033583231 0.1034872 -0.033086788 0.092970625 -0.093666516
-0.021287454 0.034036472 0.05080199 0.035109073 -0.013600064 -0.07575757 0.035398852 -0.042801633
-0.028648792 -0.09967568 0.07651704 0.19018918 -0.16082484 -0.058856785 0.11129745 -0.11560819
-0.072771735 0.008180495 0.06470158 0.012122875 -0.017856395 -0.06192751 0.1081589 0.042885378
-0.049000647 -0.052173626 -0.13558167 0.15055315 0.06463327 -0.039584406 -0.072789535 0.18720232
-0.005811366 0.042674027 0.063208625 0.0720201 -0.039445564 -0.014911301 -0.010104787 -0.09811352
0.10441493 0.00664879 -0.16341522 0.07228018 0.08506478 -0.05295241 0.06006736 -0.010676597
-0.049594983 0.08570561 -0.022668596 -0.036180392 0.1267699 -0.0942005 0.034651954 0.19571589
0.07998321 -0.22556682 0.050374966 -0.07816556 -0.031823512 -0.08447693 -0.035325468 -0.14676535
-0.02055224 0.15360248 0.15767492 0.065214485 0.09152507 -0.17302789 -0.07868007 0.016465336
-0.04401461 -0.097320005 -0.083866514 0.03051108 -0.1300761 -0.0738933 -0.07351676 0.010888476
-0.06462852 -0.11035049 0.101352215 0.10524252 0.13817804 -0.04469216 -0.011896079 0.047414325
0.0109933 -0.032636106 0.076490104 -0.080954015 0.075160414 -0.0571396 0.1445071 -0.15039487
-0.04775431 0.0014716573 -0.13119845 -0.06439842 0.02653594 -0.055098485 0.040589172 0.031818353
0.0021646153 0.07831674 -0.20339504 -0.09762969 0.1754013 0.07648288 0.06493575 0.05806286
-0.09258439 -0.0923719 0.017857075 0.11601762 -0.1042998 0.06901848 0.27821583 -0.12306833
-0.006840733 -0.29989687 0.02665593 -0.13848254 0.049794465 -0.061168414 0.05718613 -0.033319693
0.044327773 0.07573005 -0.083024554 -0.11705357 0.01284611 0.07086147 0.026979798 0.03888698
0.09550245 0.12695098 0.072845705 -0.23264678 -0.064671755 -0.01037294 -0.026215447 -0.14362116

encoder_z0.GRU_update.new_state_net.0.bias f4 [100]
00000000: a3e8 023c 38bb 573b 9ccf 013c 4c94 15bc
00000010: 6716 fb3b 1f7e 3cbb 9f33 2cbb 3279 2bbb
00000020: 0cd6 1fbb 7949 263b a94c ec3b 33b3 1ebc
00000030: a496 003c 80a8 603b 2f63 39bb 32d5 48bb
00000040: 48bf 68bb 78ac 1b3b bd93 1b3b 4c48 fb3b
00000050: 0b18 343b 2b79 b13b da89 18bc c322 3d3b
00000060: 29f2 5e3b 0a57 54bb 7ebe 3a3b bf2e 0c3c
00000070: 6138 86bb de3e 57bb b52e 08bc 623e 003c
00000080: 1a53 28bb 3c3f 903b 89a5 3f3b 98d1 16bc
00000090: 0845 273b 2caa 013c ded9 2d3b 440f febb
000000a0: 6d95 2d3b 88cc 403b efd6 21bc 428e 033c
000000b0: 56e1 2e3b a9c4 843b 0606 0dbc 1b72 953b
000000c0: 5c5e 1a3c 162a abbb e226 2c3b 96bc 293b
000000d0: 96ae b0bb d300 4cbb d029 23bb 9c2a fc3b
000000e0: 2d57 0fbc 0cbb 46bb 542f 75bb a4a6 fb3b
000000f0: 84ef 1ebc c06c a9bb e1ba 453b c5db 2cbb
00000100: bd34 febb 0e8d 2bbb 0093 31bb de7e 73bb
00000110: 2eb1 843b 3764 3ebb 23c6 023c de80 50bb
00000120: 7330 35bb 7a18 04bc 5e4a 7e3b 6615 04bc
00000130: 6a52 203b c4fc 22bc e98d 493b fa05 25bb
00000140: 0d09 583b be22 0a3c 9965 2f3b ece0 053c
00000150: 079a 0dbc 494f 5bbb 997d 8cbb 097f 11bc
00000160: 6cb6 febb be1b 5b3b d2d2 1cbc 6776 1c3b
00000170: 7bea 11bc cc9d 1fbc ab0f 273b 74c0 5a3b
00000180: 41d0 273b 1e3f fcbb 6210 41bb f306 6f3b
0.007990035 0.0032917988 0.007923033 -0.009129595 0.0076625827 -0.0028761697 -0.0026275886 -0.0026164767
-0.0024389056 0.0025373383 0.007211287 -0.009686279 0.0078484155 0.0034280121 -0.0028287878 -0.0030644652
-0.0035514403 0.0023753922 0.0023739182 0.0076685306 0.002748015 0.0054160557 -0.00931021 0.002885983
0.003401885 -0.0032400512 0.002849489 0.008556067 -0.0040960764 -0.0032843868 -0.008311917 0.007827373
-0.0025684298 0.0044020694 0.0029242954 -0.0092052445 0.0025523324 0.007914107 0.0026527564 -0.0077532846
0.002648677 0.0029418785 -0.009877904 0.008029522 0.0026684604 0.004051764 -0.008607393 0.0045607216
0.009421911 -0.005223523 0.0026268293 0.002589976 -0.005391906 -0.003112842 -0.0024896748 0.007695509
-0.008748812 -0.003032389 -0.0037412243 0.007679777 -0.00970066 -0.0051704347 0.0030171203 -0.002637611
-0.0077577517 -0.0026176604 -0.0027095675 -0.0037154476 0.004049442 -0.0029051432 0.00798181 -0.0031815092
-0.0027647286 -0.008062476 0.003880165 -0.008061742 0.0024463185 -0.009947959 0.003075475 -0.0025180564
0.003296438 0.008431135 0.0026763438 0.008171301 -0.00864268 -0.0033464006 -0.0042874333 -0.008880385
-0.007773211 0.0033433284 -0.009571748 0.0023874284 -0.008906002 -0.009742212 0.0025491517 0.003337887
0.0025606307 -0.007697954 -0.0029459228 0.0036472648

encoder_z0.GRU_update.new_state_net.2.weight f4 [40, 100]
00000000: 9c23 193d a845 cbbd e29a 383e 7a86 423d
00000010: fe63 0c3e c349 033c c50b e7ba e2c9 093c
00000020: c204 77bc 59a8 f13d 73c9 e53d 89a5 6c3d
00000030: f4d5 b53b d963 29be 0a7b 86bd 6a6c 0f3b
00000040: 3dc6 aebd 74ce a23d db53 af3d 5462 113e
00000050: aa94 02bc b92c bf3c c09a 0d3d 572d 453e
00000060: 1925 8f3d c3e3 dd3c 46e2 813d 025b 6dbe
00000070: 5025 b0bd 1608 da3c 2e3e 443e bce1 ca3d
00000080: 2847 223e 3f82 dd3d b6e8 4dbd 7bc3 1e3e
00000090: c91a 4d3d 0d66 58bd dd1a dd3d adce 64bd
000000a0: 9f25 3cbe 8c24 68bd cfee 36be dd4c ca3d
000000b0: ffd3 063d 109c ea3d e379 0bbc 19dc 003d
000000c0: 0642 ac3d 9ae3 95be 87d1 513c d87a 32bd
000000d0: 6f58 e0bd 40b9 fcba 5cf0 1abd 8853 763d
000000e0: ab30 a9bd 929f 92bd 457a f0bc 055f 153e
000000f0: 5091 4e3c 92b6 71bd aec1 a7bd 0824 88bc
00000100: b121 c8bd 873e 15bd 4b46 8ebd c82d 5d3d
00000110: 27d5 9e3d 6912 be3c e2ec 10bd 33bb 313b
00000120: a679 733c c782 a9bd 006f c3bd 80d9 8ebd
00000130: 785d 89be a27a 163e 45ae ed3b a034 ba3b
00000140: 20cd 913d 63e3 e23d 534f 3d3d 67b1 18be
00000150: e8b1 c9bd a252 95be 21b2 083d af4c e33c
00000160: f86b 4d3d bfe8 30be d7c7 183e aefb d8bd
00000170: 481a 84bd 0d53 d43d 70d5 573e c60d 443c
00000180: 3d93 a33c 0a52 24be 6729 2b3c 686e 823d
00000190: 0a4e 34bd 7e32 9b3d d320 d03d 7bc4 9ebd
000001a0: e108 da3c 51ad a83c 0786 423c c861 a1bd
000001b0: 515e 14bd 6861 51bc 4d47 013d 49be 48be
000001c0: b536 743d 819f 04be 3829 d0bd 8479 e2bd
000001d0: 3c20 07be b8e7 1d3e cc3e 05bd 3b14 7cbc
000001e0: 2ae4 dbbd 9a85 853b 36c4 463d aeb5 9cbb
000001f0: 9277 21bd a766 5abc 5a73 3bbe f0b8 19be
00000200: a26e 50bd 46b0 8abb 3984 16be 385e ec3d
00000210: 682c c3bd afa7 24bd ba5e 1dbe 350f 27be
00000220: 5e58 ff3a 3f6e 04be 717c bb3d f875 29ba
00000230: fa48 863d 9bd7 00be 5dd3 1dbd 7e01 243d
00000240: a2af 4bbd 6d45 3b3c 3038 f8bd becc 0f3c
00000250: d45d 3e3b 9122 42bd f388 abbd 1078 a1bd
00000260: 626a 903c b082 74bd ba97 983d 9502 c93d
00000270: 120f 79bd a91d d7bd 8a78 523d 3539 163d
00000280: 1739 42bd 5294 a1bc 7a57 7e3d fd01 f3bd
00000290: 9430 17be 1313 093e f42b 5cbd ab79 ce3b
000002a0: 1562 01be 5f57 6a3c b9c4 4c3c 9a76 9cbc
000002b0: efd2 8b3d f7c7 ab3d 0828 2dbd 481d 463e
000002c0: e656 323c 8b95 60bd 4868 6bbe 74be a03d
000002d0: 279e dfbd 2885 0d3c cef1 f5bc f7b9 07bd
000002e0: 7607 9bbd 4848 7bbd e74e b23c e388 2d3d
000002f0: 15ee eb3b dee7 e9bd e038 a83c b4d3 fbbd
00000300: 7144 fd3d cc41 613d fee6 25be d027 583d
00000310: 6363 b0bd 7722 3bbe ffe7 b2bc f460 4c3e
00000320: dbbd f23d 9dee 263e f8fd ff3c 7ae0 483e
00000330: 1929 c93d 3451 133e 3f12 913d 3ec3 213e
00000340: f66f 963d 83f6 53bc c4c3 163e 1f60 223d
00000350: 97d4 433d 2d1a d6bd cadb 023d 4305 613d
00000360: 3265 943d 3868 21bc b9b7 093e b37d 4e3c
00000370: a8d7 113e 8ad8 8bbd cec7 06be 4f80 e3bd
00000380: 2b39 ea3d 380c 363e 81ea e0bd 86eb 3f3d
00000390: cd87 993d 4b6f 27be 0334 e7bb 9e05 84bd
000003a0: b0c4 2c3e 2523 ecbd 2d72 4ebe 50a9 a93d
000003b0: 1978 2bbe 0772 5dbd 8d8c a13c 95ad 40be
000003c0: 8d48 783d 9a6e b03a 8266 87bc 5ab9 09bc
000003d0: 7b0d 3c3e 2a9e 3c3e f43b 87bd f01e 8fbd
000003e0: b5f0 2f3d be45 d0bc eb05 1bbd 0f3e 06bd
000003f0: 9d6d f3bd a3a3 823d 5d34 093c 2f15 e93c
0.037387475 -0.09925395 0.18027833 0.047491528 0.13710019 0.008013192 -0.0017627409 0.008409949
-0.015076818 0.11799688 0.11220064 0.057775054 0.005549187 -0.16541995 -0.065664366 0.0021884688
-0.08533905 0.07949534 0.08560916 0.14197665 -0.007970015 0.023336755 0.03457141 0.19255577
0.06989498 0.027086144 0.06341986 -0.23179248 -0.08600867 0.026615184 0.19164345 0.09906337
0.15847456 0.10815858 -0.05027076 0.15504257 0.050074372 -0.0528317 0.107961394 -0.055861164
-0.18373726 -0.05667548 -0.17864536 0.09877942 0.03291702 0.11455548 -0.008512947 0.0314599
0.084110305 -0.2927521 0.012806303 -0.043574184 -0.10954367 -0.0019281283 -0.03782688 0.060138255
-0.08261236 -0.07159342 -0.029355178 0.14587028 0.012607887 -0.059012003 -0.08191238 -0.016618744
-0.09772051 -0.036436584 -0.06947001 0.05399874 0.07755499 0.023202138 -0.03538216 0.0027119636
0.014860546 -0.08276897 -0.09542656 -0.069750786 -0.26829123 0.14695218 0.0072534406 0.005682543
0.071192026 0.11078527 0.046218228 -0.14911424 -0.09848386 -0.29164606 0.033373002 0.027746527
0.050151795 -0.17276286 0.14919983 -0.10594879 -0.06450325 0.10367403 0.21077514 0.0119661745
0.01996767 -0.1604692 0.010446883 0.063687146 -0.044019736 0.0757799 0.10162511 -0.077523194
0.026615562 0.020590456 0.011872775 -0.078799784 -0.03622276 -0.012779571 0.03156214 -0.19603838
0.059622485 -0.12951471 -0.10164112 -0.110583335 -0.1319589 0.15420425 -0.03253059 -0.015385683
-0.10736878 0.0040747644 0.048526965 -0.0047824 -0.03942067 -0.013330138 -0.18305722 -0.15011954
-0.050886758 -0.004232439 -0.14698876 0.11541408 -0.09529954 -0.040198978 -0.15368167 -0.16314395
0.0019481292 -0.1293268 0.09154595 -0.0006464417 0.06556888 -0.12582247 -0.03853165 0.040040486
-0.049728043 0.011430127 -0.12120092 0.008776842 0.0029047625 -0.047396246 -0.0837573 -0.07884228
0.017628852 -0.059694946 0.074508145 0.098149456 -0.060805388 -0.10503704 0.051384486 0.03667565
-0.047417726 -0.019724045 0.062095143 -0.118656136 -0.14764625 0.13386182 -0.053752854 0.006301125
-0.12635072 0.014303057 0.012498074 -0.019099522 0.06827342 0.0838775 -0.042274505 0.19347107
0.010884976 -0.054830115 -0.22988999 0.07848826 -0.10918837 0.008637704 -0.030022528 -0.033136334
-0.075697824 -0.06134823 0.02176614 0.042366873 0.0072000124 -0.11421178 0.020534933 -0.122962385
0.1236657 0.05499439 -0.16201398 0.052772343 -0.086127065 -0.18274866 -0.02183914 0.1995886
0.11852618 0.16301961 0.031249031 0.19616881 0.09822292 0.14386445 0.07083558 0.15797135
0.073455736 -0.012937191 0.14723116 0.03964245 0.047810163 -0.104542114 0.03194789 0.05493666
0.07245864 -0.009851508 0.13448991 0.012603211 0.14242423 -0.06828411 -0.13162157 -0.11108457
0.11436685 0.17778099 -0.10982228 0.046855472 0.07496605 -0.16351049 -0.007055761 -0.06446384
0.16871905 -0.11530141 -0.20160742 0.08284247 -0.16745032 -0.054063823 0.01972034 -0.18816216
0.060616065 0.0013460696 -0.016528372 -0.008406008 0.18364517 0.1841971 -0.06603232 -0.06988323
0.042954165 -0.02542388 -0.03784744 -0.032774027 -0.118861414 0.063788675 0.008374301 0.028452484

encoder_z0.GRU_update.new_state_net.2.bias f4 [40]
00000000: 5351 503b 7a3b 0e3c c355 31bb 56cc be3b
00000010: f0f4 4bbb c80f 4e3b 191b eebb dcc2 53bb
00000020: 200f 40bb 8b6b 89bb d9a2 3bbb ca32 0a3c
00000030: fb8b 55bb 05d4 56bb 5866 183c b53e ce3b
00000040: f043 1cbb 8461 5cbb ba8c 0fbc 0770 93bb
00000050: f6fd b63b 10e8 1f3b c28f 013c 5e92 363b
00000060: b542 293b 2208 61bb f797 ebbb 39bb 063c
00000070: 8003 dcbb d779 593b ae6d 79bb d9f0 1d3c
00000080: 1127 26bb 3fe1 923b ca8b 26bb da2d 3d3b
00000090: 56e1 a63b 90bf 203b 3a09 2f3b 117b 293b
0.0031786754 0.0086811725 -0.0027059175 0.0058226986 -0.0031121336 0.0031442512 -0.007266414 -0.003231219
-0.002930589 -0.0041937283 -0.0028631 0.008434961 -0.0032584656 -0.0032780182 0.009301744 0.0062940964
-0.0023844205 -0.003362746 -0.008761579 -0.0044994387 0.0055844737 0.0024399795 0.00790781 0.0027858238
0.0025827114 -0.0034337123 -0.0071897465 0.008223348 -0.0067142844 0.0033184194 -0.003805976 0.009639942
-0.0025352875 0.004482418 -0.002541291 0.002886644 0.00509278 0.0024528243 0.002670838 0.0025860707
