LatentODE/experiments/experiment_41146.ckpt (torch, 302463 bytes, 34 tensors)

encoder_z0.GRU_update.update_gate.0.weight f4 [100, 44]
-0.1764955 0.004564809 0.16673324 0.0073222173 0.020303067 0.13512976 -0.10847455 0.07036757
-0.059716504 0.13520484 -0.08850443 0.18685699 -0.03537644 0.25772765 -0.076770924 0.11145056
0.1630052 -0.035998713 -0.006717948 -0.0045362185 0.017818576 -0.016768469 -0.051994074 -0.0721181
0.10180651 0.086892486 -0.0041005267 -0.012779081 -0.037436217 -0.043778308 0.04326572 -0.08384728
-0.08775465 0.15665992 -0.015143229 -0.21266346 -0.117359884 -0.080421425 -0.012850828 -0.08931928
-0.14662439 -0.04448803 -0.017282337 0.0101113245 0.045411892 -0.058551908 -0.059961505 -0.018093456
0.024988633 -0.08263141 0.09523042 0.08232506 0.0026025642 -0.060443524 0.17765766 0.22358724
-0.02463913 -0.10008972 -0.05022692 -0.13497369 0.13444173 -0.041312005 -0.063910626 -0.050146498
0.078115545 -0.052716263 -0.0859051 -0.088739544 0.008372616 0.036966532 0.1941205 0.024383398
-0.04448633 0.0011605391 0.0149485255 0.17908037 0.03964766 -0.064969435 0.09349109 0.17681469
-0.060502622 0.060811628 0.04842165 0.09901842 -0.15874161 0.07692472 -0.025575124 -0.10905804
-0.06514585 -0.10543175 -0.09803016 -0.05692889 -0.015441461 0.031249695 0.02792198 0.05484527
-0.03699864 0.09775722 -0.06274612 0.20718989 -0.13715136 0.035829257 -0.20763715 -0.044674244
0.09067989 0.015720002 -0.024376122 -0.11718912 -0.12484769 0.091705024 -0.057893056 0.035994675
0.1800255 0.031417686 -0.07451262 -0.07095352 0.06078277 0.06531958 -0.1668723 0.08550281
-0.085663304 0.072474964 -0.0047577177 -0.0062441104 0.13736261 -0.038585253 -0.22817841 0.00844009
-0.08003066 -0.039231196 0.17264153 -0.17720726 0.005654373 -0.029368795 0.009123458 0.05995923
-0.17450204 -0.11011478 -0.05491819 -0.17761424 0.25172377 0.1117061 -0.014750877 -0.014071157
-0.07886025 0.02519248 -0.17119846 0.1453206 -0.08184705 -0.02482615 0.04325363 0.065568045
0.0028221493 -0.064765796 -0.09692108 -0.11711727 0.053969234 -0.0132527575 -0.011714622 -0.1443855
0.23120885 0.08744243 -0.078210324 0.047943607 -0.061658274 0.10970046 -0.02795914 -0.04837456
0.05031398 0.0056233746 0.013776924 -0.116067536 -0.10328614 -0.07207186 0.046484172 0.04560792
-0.04960126 -0.12302077 -0.061726235 -0.14608471 -0.10854106 0.009920919 0.005016508 -0.0044448175
-0.08090584 -0.075693846 -0.16860768 0.00046526536 0.0027730237 0.24638885 -0.1135187 -0.11795314
-0.06698591 0.12869929 0.035196472 -0.17728171 -0.22625561 -0.036804497 -0.020705916 -0.11036332
0.06974276 -0.19677384 0.04297741 0.036438122 -0.07404486 -0.085737675 0.06187664 -0.110683925
-0.13807061 0.2275618 -0.07227752 -0.015044751 -0.029867861 0.047612663 0.028127158 -0.0032839933
-0.12491635 -0.033918712 0.0953091 0.073028244 0.13308644 0.037667703 0.10217147 0.06889857
0.1271279 -0.077678464 0.06464466 -0.06074704 0.043009512 -0.2154467 -0.013961632 0.13349925
0.09504456 0.118508734 -0.034784418 -0.020936862 0.06258932 0.071218416 0.021999484 -0.00535319
-0.103494026 -0.11326689 0.091277406 0.123424575 0.105064794 0.067583464 -0.11271686 -0.06419787
-0.124988586 -0.12944771 -0.22501269 -0.04278632 -0.055940468 -0.06531628 -0.023896232 -0.024825746
00000000: 3dbb 34be 6594 953b 1ebc 2a3e 36ef ef3b
00000010: 9e52 a63c 755f 0a3e e827 debd df1c 903d
00000020: 4b99 74bd 2373 0a3e d041 b5bd 7057 3f3e
00000030: e3e6 10bd e1f4 833e 133a 9dbd 3140 e43d
00000040: d6ea 263e 6373 13bd 3b22 dcbb 8fa4 94bb
00000050: 43f8 913c 075e 89bc bdf7 54bd a8b2 93bd
00000060: ee7f d03d b0f4 b13d b65d 86bb 5a5f 51bc
00000070: b856 19bd e250 33bd 6537 313d 1fb8 abbd
00000080: b6b8 b3bd 756b 203e 4e1b 78bc 73c4 59be
00000090: 615a f0bd fdb3 a4bd 478c 52bc 07ed b6bd
000000a0: b424 16be 1539 36bd b093 8dbc f8a9 253c
000000b0: d201 3a3d 20d4 6fbd 329a 75bd ba38 94bc
000000c0: f6b4 cc3c a83a a9bd 2b08 c33d 0b9a a83d
000000d0: c88f 2a3b a193 77bd e4eb 353e 0ef4 643e
000000e0: 00d8 c9bc d7fb ccbd beba 4dbd 8b36 0abe
000000f0: 18ab 093e c736 29bd 93e3 82bd 6a66 4dbd
00000100: 0bfb 9f3d 02ed 57bd 03ef afbd 14bd b5bd
00000110: 4c2d 093c 386a 173d 86c7 463e b1bf c73c
00000120: 4c37 36bd 3b1d 983a a9ea 743c d860 373e
00000130: 9665 223d b20e 85bd 4278 bf3d e90e 353e
00000140: 99d1 77bd 9d15 793d c855 463d 2bca ca3d
00000150: 298d 22be b58a 9d3d ec82 d1bc d259 dfbd
00000160: 306b 85bd 9aec d7bd 09c4 c8bd 452e 69bd
00000170: 2efe 7cbc 5cff ff3c a3bc e43c 6fa5 603d
00000180: e38b 17bd f034 c83d 0a81 80bd 9629 543e
00000190: 6871 0cbe b3c1 123d d59e 54be 57fc 36bd
000001a0: 61b6 b93d 3cc7 803c 6fb0 c7bc d900 f0bd
000001b0: 25b0 ffbd d8cf bb3d 4521 6dbd 276f 133d
000001c0: 9b58 383e d5af 003d 139a 98bd 1450 91bd
000001d0: 5bf7 783d 46c6 853d 92e0 2abe 191c af3d
000001e0: 3e70 afbd c16d 943d a1e6 9bbb 659b ccbb
000001f0: c9a8 0c3e 920b 1ebd 9aa7 69be 4e48 0a3c
00000200: 1de7 a3bd e4b0 20bd f1c8 303e d275 35be
00000210: 5248 b93b d496 f0bc 8e7a 153c cf97 753d
00000220: aab0 32be dc83 e1bd e5f1 60bd 82e0 35be
00000230: f0e1 803e 2bc6 e43d aaad 71bc b68a 66bc
00000240: 7c81 a1bd 7660 ce3c a64e 2fbe ecce 143e
00000250: 6d9f a7bd 3660 cbbc b82a 313d 8a48 863d
00000260: cff3 383b eea3 84bd 8f7e c6bd 2edb efbd
00000270: d80e 5d3d 1822 59bc b0ee 3fbc cbd9 13be
00000280: 03c2 6c3e 0415 b33d bc2c a0bd 8460 443d
00000290: 638d 7cbd a3aa e03d 910a e5bc 6724 46bd
000002a0: 0816 4e3d 4944 b83b 9cb8 613c d1b4 edbd
000002b0: af87 d3bd 699a 93bd 3066 3e3d 5fcf 3a3d
000002c0: b12a 4bbd 50f2 fbbd a6d4 7cbd 3b97 15be
000002d0: c64a debd 5a8b 223c 8561 a43b d5a5 91bb
000002e0: f6b1 a5bd 6005 9bbd 7ea7 2cbe dcee f339
000002f0: 9ebb 353b 5c4d 7c3e 7e7c e8bd 6a91 f1bd
00000300: e92f 89bd bfc9 033e 2d2a 103d 5689 35be
00000310: 8daf 67be 50c0 16bd 749f a9bc 2a06 e2bd
00000320: 4bd5 8e3d 157f 49be 1509 303d 2440 153d
00000330: d5a4 97bd 3c97 afbd 5c72 7d3d 41ae e2bd
00000340: 6262 0dbe f605 693e 3d06 94bd 427e 76bc
00000350: 72ad f4bc 7f05 433d ed6a e63c 4438 57bb
00000360: 25d4 ffbd 59ee 0abd 6b31 c33d d58f 953d
00000370: d047 083e 7349 1a3d 473f d13d b21a 8d3d
00000380: d12d 023e e315 9fbd 6b64 843d e3d1 78bd
00000390: be2a 303d 0f9e 5cbe 54bf 64bc 07b4 083e
000003a0: b9a6 c23d b5b4 f23d 1b7a 0ebd c883 abbc
000003b0: d42e 803d f6da 913d 4338 b43c d069 afbb
000003c0: adf4 d3bd 79f8 e7bd a6ef ba3d 06c6 fc3d
000003d0: 362c d73d 3369 8a3d 19d8 e6bd 2c7a 83bd
000003e0: 04fa ffbd f18d 04be ba69 66be b540 2fbd
000003f0: d521 65bd 8bc4 85bd 08c2 c3bc 5d5f cbbc

encoder_z0.GRU_update.update_gate.0.bias f4 [100]
-0.0019358153 0.0021110703 -0.0084007215 0.016417889 -0.00838131 -0.013765228 -0.00013130018 -0.009842694
0.00080697634 -0.004484127 0.00047409243 -0.0100563 9.0073445e-05 -0.01446816 -0.009502235 0.0012473539
-0.0001617989 0.0018776024 0.014476735 -0.0016667919 -0.01505221 -0.009925333 0.0003747302 -0.009380145
0.012616373 0.00424107 -0.0044028414 0.011234406 -0.0017903731 -0.0014588716 0.0013003744 0.015504045
-0.0023681729 0.0008094179 0.014979978 0.0018257806 -0.014392956 0.01169358 -0.0017032063 -0.015850436
0.011725433 -0.0017745548 -0.006866628 -0.008906846 0.0008971967 0.0077820695 0.0019270184 -0.0007550424
-0.0007052297 0.018697694 0.015117475 0.015457384 0.010259804 -0.002013231 0.002307863 0.012128461
0.0041477424 0.0010205673 -0.0013024962 0.013373454 -0.0025657702 -0.015660755 -0.013182643 -0.0002491147
0.0022674033 0.0009807304 -0.0038799613 -0.0016266692 0.0006526086 0.000106488355 0.009096883 0.007582309
0.016414903 0.010169371 0.00015768479 -0.0145143345 -0.0021162354 0.016754584 0.015589088 -0.00030852284
-0.001666721 -0.018473573 0.0099320095 -0.0066999453 0.015677074 0.002836418 0.011939306 0.014383161
0.015182516 -0.010322191 0.0044445 -0.014997471 0.012898555 0.00833307 0.0018489016 -0.00068199576
-0.0139522925 -0.0027024993 0.002969943 0.004865581
00000000: 2fbb fdba e259 0a3b 2ea3 09bc cf7e 863c
00000010: c351 09bc 8d87 61bc a0ad 09b9 4043 21bc
00000020: 448b 533a 95ef 92bb 9c8f f839 2ec3 24bc
00000030: d0e5 bc38 dd0b 6dbc 43af 1bbc 407e a33a
00000040: 90a8 29b9 e219 f63a d42f 6d3c 4178 daba
00000050: 8b9d 76bc dd9d 22bc 7077 c439 2eaf 19bc
00000060: e7b4 4e3c acf8 8a3b b645 90bb 8410 383c
00000070: f4aa eaba 9c37 bfba 5371 aa3a ae04 7e3c
00000080: 5933 1bbb 1e2f 543a 956e 753c 084f ef3a
00000090: 6fd0 6bbc 6e96 3f3c 1f3e dfba c6d8 81bc
000000a0: 081c 403c 2e98 e8ba 7301 e1bb 05ee 11bc
000000b0: da31 6b3a bb00 ff3b 0294 fc3a 0aee 45ba
000000c0: 2adf 38ba e82b 993c 49af 773c f840 7d3c
000000d0: bd18 283c 69f0 03bb 843f 173b 74b6 463c
000000e0: c9e9 873b 8ec4 853a 85b8 aaba 551c 5b3c
000000f0: 7b26 28bb fc4a 80bc 03fc 57bc 9c9b 82b9
00000100: b798 143b da8b 803a f346 7ebb f635 d5ba
00000110: d213 2b3a 8052 df38 180b 153c 0575 f83b
00000120: 8c78 863c 6f9d 263c 3058 2539 88cd 6dbc
00000130: 8ab0 0abb e940 893c 6069 7f3c 3cc1 a1b9
00000140: e075 daba e455 97bc deb9 223c 378b dbbb
00000150: 356d 803c 33e3 393b 149d 433c 5aa7 6b3c
00000160: 16c0 783c 681e 29bc 2ba3 913b f4b7 75bc
00000170: 7654 533c 6e87 083c d856 f23a f6c7 32ba
00000180: 2898 64bc 6a1c 31bb 60a3 423b 746f 9f3b

encoder_z0.GRU_update.update_gate.2.weight f4 [20, 100]
-0.059081044 0.06942755 -0.0039743744 -0.0091379555 0.05248683 0.064990886 -0.21510647 -0.06413165
-0.20946391 0.18590009 -0.021605391 -0.016433898 0.07871489 -0.07884737 0.05081266 -0.02130964
-0.1099768 0.17868204 0.02212274 -0.16092202 0.111673325 0.0009468773 -0.016169742 -0.09137695
0.0045317886 -0.063143976 -0.02242067 0.08986844 -0.0741755 0.04548001 0.08097274 -0.05982433
-0.12746847 -0.05681163 0.109255016 -0.021440685 -0.046515875 0.036958225 0.02710414 -0.065072596
0.11322156 0.07403417 0.037679497 -0.26358297 -0.05788043 0.16948691 0.06840797 -0.105716236
0.08799081 0.0680407 -0.07112471 0.09803438 0.16987497 -0.08949743 -0.18272842 0.17250438
0.16797155 0.123512454 -0.21198812 0.19190346 0.11373888 -0.03657203 0.024211405 -0.028983908
-0.0025169523 0.006221607 0.036204305 -0.029083718 0.055888437 0.11658572 0.08641329 0.12686808
0.012771866 0.035189886 -0.28339294 -0.14430898 -0.009625919 -0.14721587 0.051336575 0.0069941636
0.17220776 -0.22821347 0.15793917 -0.10940045 0.010256741 -0.05551949 -0.004179469 0.036622975
0.031971548 0.0558507 0.0903006 -0.06153417 0.19706038 0.27585092 0.087362416 -0.041262206
-0.075611055 0.0013099952 0.074124716 0.26184565 0.11622305 -0.009717518 0.06266657 0.1345954
0.02654298 -0.1219138 0.02554473 0.067303844 -0.358057 0.061561033 0.22157626 -0.064264044
-0.082973324 0.2735005 -0.12078578 0.03540123 0.044036794 -0.2337062 0.04613134 -0.13156743
0.00825546 -0.0326048 0.15489365 -0.06664275 -0.16073023 -0.056294683 0.21337542 -0.0517394
-0.0023638192 0.14360325 -0.17132087 0.06672994 0.04804804 0.022878297 -0.116198376 0.025310138
-0.23675714 -0.12704027 0.064566016 -0.08505204 0.01079728 -0.045716725 0.15591078 0.10340427
-0.034560014 -0.044509873 -0.09359631 -0.20242387 0.11372284 -0.12429365 -0.025520928 0.1208296
-0.13101433 0.022747654 0.11217724 -0.081100576 0.0672684 -0.029591622 0.10643195 0.00629049
0.0007533297 -0.15770654 0.1916375 0.04894122 -0.021099312 -0.09680921 0.01765119 0.0011302049
0.14916265 -0.07408159 0.15282437 0.0067648436 -0.2337373 0.11599733 0.13280566 0.13303907
-0.1077227 0.0059213853 -0.12906519 -0.20320556 -0.04856578 -0.022202771 -0.043701667 0.19142413
0.008980654 -0.121050306 -0.093635105 -0.14798437 0.11423194 -0.32650194 0.016141502 -0.063004926
-0.015559086 -0.20195949 0.13410719 -0.07694017 0.019413907 0.08339169 0.028643847 -0.017561262
-0.15546644 0.15701367 0.017762957 -0.16230069 0.08905989 0.17217842 -0.0646665 -0.105408065
0.0021991665 -0.120999664 -0.12744981 0.051086713 -0.04214102 0.027149718 0.07262003 0.09715898
-0.08147602 -0.07218229 -0.028820386 -0.03300243 -0.05970976 -0.112181105 0.0351344 -0.0049033626
-0.123883374 -0.035182565 0.0509882 0.023354823 -0.07691953 -0.28204757 0.20575222 0.04244949
-0.0045735287 -0.059313938 -0.00022391276 0.21394046 -0.032601964 -0.08958823 -0.029973928 -0.017332166
0.08322175 -0.025655383 0.05474411 -0.07889158 -0.051833585 -0.033886027 -0.13801458 0.02457038
-0.12306636 0.14336438 -0.129718 0.10904381 -0.063898146 -0.13299488 -0.101514876 -0.04496879
00000000: f7fe 71bd 0830 8e3d 783b 82bb 5db7 15bc
00000010: 6efc 563d f119 853d df44 5cbe 7457 83bd
00000020: b57d 56be 985c 3e3e cafd b0bc 62a0 86bc
00000030: 4635 a13d bb7a a1bd f020 503d 8e91 aebc
00000040: 843b e1bd 6df8 363e c03a b53c bec8 24be
00000050: fcb4 e43d dc37 783a 6876 84bc d723 bbbd
00000060: 667f 943b a151 81bd 8eab b7bc f20c b83d
00000070: 53e9 97bd 3f49 3a3d 09d5 a53d 5b0a 75bd
00000080: 1887 02be 50b3 68bd 18c1 df3d 60a4 afbc
00000090: 6e87 3ebd 8261 173d 8009 de3c c844 85bd
000000a0: b5e0 e73d 3a9f 973d d155 1a3d 59f4 86be
000000b0: 0814 6dbd fa8d 2d3e 7a19 8c3d c181 d8bd
000000c0: 8734 b43d ec58 8b3d d5a9 91bd 40c6 c83d
000000d0: b4f3 2d3e 6e4a b7bd 291d 3bbe fda4 303e
000000e0: bc00 2c3e 19f4 fc3d 6a13 59be 5782 443e
000000f0: eeef e83d 8ecc 15bd ff56 c63c a96f edbc
00000100: 74f3 24bb 9fde cb3b f74a 143d fa40 eebc
00000110: 46eb 643d 7ec4 ee3d 73f9 b03d b5e9 013e
00000120: 1741 513c 4523 103d e118 91be bcc5 13be
00000130: 08b6 1dbc c2bf 16be 4d46 523d 4c2f e53b
00000140: 3b57 303e cbb0 69be ceba 213e 580d e0bd
00000150: e40b 283c 6868 63bd edf3 88bb f901 163d
00000160: 99f4 023d b4c3 643d 85ef b83d 410b 7cbd
00000170: 32ca 493e 553c 8d3e 11eb b23d 8f02 29bd
00000180: f8d9 9abd 25b4 ab3a b3ce 973d a210 863e
00000190: 5a06 ee3d 3a36 1fbc 5557 803d 60d3 093e
000001a0: aa70 d93c f1ad f9bd 2e43 d13c 99d6 893d
000001b0: 3f53 b7be 6c27 7c3d e3e4 623e de9c 83bd
000001c0: ebed a9bd 4208 8c3e 895e f7bd e100 113d
000001d0: ed5f 343d ae50 6fbe 37f4 3c3d 9db9 06be
000001e0: e941 073c 9c8c 05bd 719c 1e3e fe7b 88bd
000001f0: 7796 24be 4195 66bd 167f 5a3e b1ec 53bd
00000200: 4eea 1abb bb0c 133e bd6e 2fbe b5a9 883d
00000210: 06ce 443d 446b bb3c 6af9 edbd 3557 cf3c
00000220: 7770 72be d816 02be 303b 843d c42f aebd
00000230: 13e7 303c 7641 3bbd 13a7 1f3e 9ec5 d33d
00000240: cd8e 0dbd fc4f 36bd 6caf bfbd 3448 4fbe
00000250: 85e7 e83d ab8d febd 4411 d1bc 8275 f73d
00000260: 9f28 06be 4a59 ba3c 2ebd e53d 0f18 a6bd
00000270: 04c4 893d 216a f2bc fff8 d93d 7420 ce3b
00000280: 1a7b 453a d37d 21be 9f3c 443e 9776 483d
00000290: 77d8 acbc e843 c6bd 3a99 903c 6223 943a
000002a0: 18be 183e 17b8 97bd fe7d 1c3e 9fab dd3b
000002b0: d558 6fbe 0290 ed3d 35fe 073e 653b 083e
000002c0: b89d dcbd 2e08 c23b aa29 04be 1e15 50be
000002d0: e9ec 46bd 96e2 b5bc 8500 33bd b004 443e
000002e0: 9823 133c 39e9 f7bd c3c3 bfbd 3789 17be
000002f0: 6ff2 e93d 432b a7be 2f3b 843c ba08 81bd
00000300: 89eb 7ebc 78ce 4ebe 6553 093e cf92 9dbd
00000310: ea09 9f3c 43c9 aa3d 80a6 ea3c a3dc 8fbc
00000320: 9832 1fbe 31c8 203e 9f83 913c 2732 26be
00000330: 0865 b63d 8a4f 303e df6f 84bd 2fe0 d7bd
00000340: e41f 103b acce f7bd 3482 02be 4d40 513d
00000350: 109c 2cbd 1669 de3c cfb9 943d 4afb c63d
00000360: e6dc a6bd 4fd4 93bd bb18 ecbc 8e2d 07bd
00000370: 3992 74bd 35bf e5bd 17e9 0f3d 63ac a0bb
00000380: 91b6 fdbd 981b 10bd 01d9 503d 9d52 bf3c
00000390: fd87 9dbd 8a68 90be b6b0 523e 84df 2d3d
000003a0: 8add 95bb 2cf3 72bd 20ca 6ab9 3513 5b3e
000003b0: a389 05bd 097a b7bd e28b f5bc 30fc 8dbc
000003c0: 2a70 aa3d 3d2b d2bc 5c3b 603d e991 a1bd
000003d0: 744f 54bd 13cc 0abd b253 0dbe d247 c93c
000003e0: 370a fcbd 1dce 123e ccd4 04be 5c52 df3d
000003f0: 08dd 82bd cf2f 08be 08e7 cfbd 3231 38bd

encoder_z0.GRU_update.update_gate.2.bias f4 [20]
0.007327692 -0.006973916 0.01265319 -0.0145987775 -0.0004652401 -0.013898496 -0.014235723 -0.014800465
-0.00026839564 0.01079573 -0.00039051648 0.0074519175 -0.014891274 0.009565735 -0.012868299 0.016309217
0.014063943 -0.012647783 0.0069065467 0.013593456
00000000: 231d f03b 7385 e4bb 534f 4f3c b62f 6fbc
00000010: 78eb f3b9 84b6 63bc f33c 69bc a67d 72bc
00000020: 74b7 8cb9 93e0 303c 3cbe ccb9 372f f43b
00000030: 88fa 73bc 9ab9 1c3c 8fd5 52bc e89a 853c
00000040: 746c 663c a638 4fbc 5050 e23b 16b7 5e3c

encoder_z0.GRU_update.reset_gate.0.weight f4 [100, 44]
-0.04340736 -0.012379375 0.04077958 -0.019519176 0.09305938 0.09455355 0.085197076 -0.07855191
0.04493581 -0.026899183 -0.0036798688 0.15303132 -0.060695123 0.030341426 -0.09302449 0.012294988
0.10076216 0.091782026 0.031261705 0.065251015 0.091617666 -0.03815626 -0.014620034 -0.10446751
-0.013739999 -0.20691918 -0.11949683 -0.1296605 -0.019975156 -0.006613438 -0.0022106147 -0.08387887
-0.07970604 0.029211158 0.029600728 -0.039366562 0.03854398 -0.18959048 0.00623268 0.17531377
0.059039097 0.06889059 0.016959775 0.18020208 -0.05155677 0.06123668 -0.08220384 0.1875288
-0.0105349235 0.027914874 0.049730025 -0.08224506 0.1355416 -0.10291406 0.066199034 -0.04280511
-0.0125524625 -0.045229852 -0.12822792 0.051421046 -0.121558 0.044790402 0.097335175 -0.018331986
-0.16105722 -0.21844581 -0.02258237 0.13892333 0.12106017 -0.10541239 -0.030909313 0.016324446
0.10336916 -0.12291448 -0.09496385 0.014988142 0.009513625 0.25400895 -0.113084406 -0.18405132
-0.093744256 -0.041555412 -0.08021098 -0.01267304 -0.23561434 0.01942649 -0.012571552 0.027779592
0.029515997 0.008905262 -0.05786651 0.06651592 -0.09779969 0.05643981 0.065203846 -0.025765149
-0.19915497 0.0389983 0.046900738 0.30781457 0.10833635 0.15665811 -0.08839435 -0.0057877144
0.0495387 -0.08203333 0.07079605 -0.04981697 0.040468745 -0.012946731 0.061753817 0.060997818
-0.08534675 0.047547493 -0.059571024 0.023797622 -0.052179437 -0.22979338 -0.05646373 -0.14233589
-0.016790703 -0.100537814 -0.012098579 -0.009172838 0.34321102 0.10351463 0.019462131 -0.08780282
0.06474796 -0.049182598 0.03190956 0.12796353 -0.07353999 0.32495221 -0.015815854 0.009028957
0.110827506 0.0062797368 -0.14540419 0.07924701 0.038151775 0.021315407 -0.092225805 0.028706992
0.20569877 0.103050575 0.15306059 -0.06649057 -0.12144454 -0.048333406 -0.1084479 0.15841772
0.0857071 0.2504542 0.013185525 0.04217826 0.08286719 0.09719624 0.017205885 0.08525891
0.03152744 -0.15685344 0.05184428 -0.06279753 0.24382816 0.0031651454 0.056576036 0.14669943
0.13764766 -0.14418286 0.22198285 0.06841828 -0.041155446 0.034040112 -0.10666958 -0.16865616
-0.077028066 0.050911557 -0.05402342 0.05788536 -0.09148954 -0.06697394 -0.032061458 -0.11584662
0.117405266 -0.061449714 -0.037953462 -0.087981895 0.14282802 0.01866355 0.08673671 0.13132499
-0.07472943 0.009429746 -0.043257494 0.019250168 -0.15943462 0.068073995 0.03699738 -0.06938338
-0.14775923 -0.08657642 0.0035183744 0.016864922 -0.03481702 -0.08268178 0.07231811 -0.16585732
0.09524482 -0.009161196 0.12375759 0.043734673 -0.20348252 0.008369245 -0.07037858 0.014561396
0.06904652 0.059272517 0.010115153 -0.09248963 0.10886552 0.17585164 0.18158469 -0.05382018
0.06312249 -0.04855502 0.10435821 -0.14052239 -0.075148985 -0.034085996 -0.06590912 0.05208577
0.20788667 0.21468969 -0.083736636 -0.07886246 0.08943556 -0.17348112 0.14064597 0.028709719
0.049903285 0.023758842 0.1778355 -0.093222074 -0.03267542 -0.024483187 -0.038192183 0.14373684
-0.005924627 -0.073210716 -0.017008558 -0.118092075 -0.045335107 0.08190128 0.2522281 0.12229024
00000000: eacb 31bd ddd2 4abc 7d08 273d aee6 9fbc
00000010: eb95 be3d 4ba5 c13d ce7b ae3d d3df a0bd
00000020: 9d0e 383d ad5b dcbc f429 71bb 3eb4 1c3e
00000030: 739b 78bd 958e f83c a083 bebd eb70 493c
00000040: 645c ce3d 37f8 bb3d 460c 003d 53a2 853d
00000050: 0ba2 bb3d bd49 1cbd de88 6fbc 10f3 d5bd
00000060: bc1d 61bc 9fe2 53be c1ba f4bd b9c5 04be
00000070: f0a2 a3bc 8ab5 d8bb f6df 10bb afc8 abbd
00000080: ec3c a3bd 3d4c ef3c 3a7d f23c d53e 21bd
00000090: 4be0 1d3d 0224 42be 823b cc3b 7485 333e
000000a0: fbd2 713d 8216 8d3d 3aef 8a3c e586 383e
000000b0: 312d 53bd 50d3 7a3d 7d5a a8bd 8d07 403e
000000c0: ac9a 2cbc bcad e43c b6b1 4b3d 1970 a8bd
000000d0: 6bcb 0a3e 9bc4 d2bd 5c93 873d 6954 2fbd
000000e0: d8a8 4dbc f042 39bd 2e4e 03be e09e 523d
000000f0: 67f3 f8bd 2476 373d aa57 c73d f62c 96bc
00000100: 2fec 24be 42b0 5fbe aafe b8bc eb41 0e3e
00000110: 65ee f73d 73e2 d7bd 8735 fdbc d8ba 853c
00000120: 36b3 d33d 96ba fbbd 687c c2bd d390 753c
00000130: 09df 1b3c 760d 823e cc98 e7bd f377 3cbe
00000140: fdfc bfbd 0236 2abd a745 a4bd 95a2 4fbc
00000150: e344 71be 4d24 9f3c e9f8 4dbc 0792 e33c
00000160: 88cb f13c 60e7 113c 6f05 6dbd 8039 883d
00000170: 344b c8bd 6e2d 673d 9889 853d 6f11 d3bc
00000180: 48ef 4bbe aebc 1f3d fd1a 403d df99 9d3e
00000190: 73df dd3d fc6a 203e 1908 b5bd dea6 bdbb
000001a0: 18e9 4a3d 1701 a8bd 85fd 903d e10c 4cbd
000001b0: 8ec2 253d 871e 54bc 92f1 7c3d d9d8 793d
000001c0: 47ca aebd 29c1 423d bf00 74bd 3bf3 c23c
000001d0: 1bba 55bd f54e 6bbe 8346 67bd 80c0 11be
000001e0: a88c 89bc c5e6 cdbd 1e39 46bc ac49 16bc
000001f0: 5bb9 af3e 7aff d33d 0c6f 9f3c f7d1 b3bd
00000200: 949a 843d b173 49bd 99b3 023d df08 033e
00000210: 229c 96bd 2360 a63e 4090 81bc 31ee 133c
00000220: 88f9 e23d 40c6 cd3b d6e4 14be 424c a23d
00000230: 0945 1c3d a69d ae3c e2e0 bcbd ed2a eb3c
00000240: b3a2 523e 2e0c d33d eabb 1c3e 352c 88bd
00000250: eab7 f8bd 40f9 45bd ef19 debd 4138 223e
00000260: 3487 af3d 883b 803e 1a08 583c 1cc3 2c3d
00000270: 46b6 a93d d30e c73d 5bf3 8c3c 399c ae3d
00000280: eb22 013d 309e 20be ab5a 543d fe9b 80bd
00000290: 17ae 793e 546e 4f3b 46bc 673d 6038 163e
000002a0: 82f3 0c3e aca4 13be 794f 633e e21e 8c3d
000002b0: 9d92 28bd a56d 0b3d 9575 dabd 33b4 2cbe
000002c0: e4c0 9dbd a388 503d a947 5dbd 3319 6d3d
000002d0: de5e bbbd a229 89bd e052 03bd fe40 edbd
000002e0: 2c72 f03d b2b2 7bbd 1775 1bbd da2f b4bd
000002f0: 8241 123e 4de4 983c 04a3 b13d 0f7a 063e
00000300: be0b 99bd 397f 1a3c c52e 31bd 87b2 9d3c
00000310: d442 23be 616a 8b3d 918a 173d e018 8ebd
00000320: 324e 17be fa4e b1bd 8794 663b 4e28 8a3c
00000330: 4b9c 0ebd 1155 a9bd 841b 943d 80d6 29be
00000340: b70f c33d d718 16bc 9f74 fd3d 2123 333d
00000350: b95d 50be 281f 093c a522 90bd ec92 6e3c
00000360: 4368 8d3d bdc7 723d 07ba 253c 346b bdbd
00000370: e3f4 de3d 7412 343e 56f1 393e 8d72 5cbd
00000380: 5d46 813d a1e1 46bd c2b9 d53d 1ae5 0fbe
00000390: b6e7 99bd c29d 0bbd 5cfb 86bd e357 553d
000003a0: 3ee0 543e 9dd7 5b3e 1d7e abbd a482 a1bd
000003b0: fe29 b73d 09a5 31be 7f05 103e a530 eb3c
000003c0: 6367 4c3d e7a1 c23c 821a 363e 37eb bebd
000003d0: a9d6 05bd f790 c8bc 686f 1cbd c02f 133e
000003e0: 6023 c2bb 80ef 95bd 8855 8bbc 42da f1bd
000003f0: 4eb1 39bd dcbb a73d 0b24 813e 4e73 fa3d

encoder_z0.GRU_update.reset_gate.0.bias f4 [100]
0.003074306 -0.00029025006 0.00034736027 -0.005079356 0.011163306 0.010303966 0.0002203813 0.010071013
-0.011835236 0.0011967563 0.0007405395 0.015628008 7.861829e-05 0.012777293 -0.0002068064 0.001300846
-0.011607993 0.010896122 -0.00660587 0.0001357299 -0.00080126943 -4.4329674e-05 0.014543587 0.0071241437
-0.0006917083 0.0005560826 0.00044928154 -0.013290764 -0.011767533 0.0129375085 -0.012094615 -0.0010265234
-0.0020148577 -0.0001386879 0.0006927621 6.119511e-05 0.008699211 -0.00041860447 -2.9829447e-05 0.0016963726
0.011316166 -0.00016855984 0.0010116909 -0.00016557076 -0.00018670876 -0.00024942576 -0.011951123 -0.0043671513
-0.00063301774 0.00065853365 -0.0036552148 0.0058541126 -0.0011026652 0.0001268019 0.0007793254 0.0006928552
-0.012186114 0.0009771358 -0.002148773 0.0009255463 0.0002356664 -0.00012718467 -0.0059788255 -0.017796287
0.0027573206 -0.004160656 -0.011500306 -0.012231011 -0.00041767792 -0.0008257766 0.010328977 2.6545837e-05
-0.00036420207 0.0026589264 0.011663669 0.001844424 -0.001093232 0.012947359 0.0006543653 0.00045175303
0.0007921071 -0.0006154042 0.012240081 -0.0005024753 0.010605206 0.012613069 -4.8456946e-05 -7.2315685e-05
-0.00041458406 0.00032993138 0.012808395 0.010540204 0.002696773 0.01138064 5.302392e-05 0.013599988
0.00015989994 -0.010944448 0.00035350467 0.010873692
00000000: 4c7a 493b b42c 98b9 e81d b639 ba70 a6bb
00000010: 4de6 363c f7d1 283c 2816 6739 e400 253c
00000020: 94e8 41bc 7adc 9c3a c420 423a 4f06 803c
00000030: e0df a438 da57 513c 2cda 58b9 2681 aa3a
00000040: 742f 3ebc a685 323c 0e76 d8bb b852 0e39
00000050: 480c 52ba a0ee 39b8 3a48 6e3c a671 e93b
00000060: c253 35ba 12c6 113a 8c8d eb39 81c1 59bc
00000070: 9ccc 40bc d8f7 533c 7e28 46bc 698c 86ba
00000080: b40b 04bb c06c 11b9 7a9a 353a e055 8038
00000090: 2387 0e3c 2478 dbb9 403a fab7 d258 de3a
000000a0: 7167 393c 70bf 30b9 b79a 843a 109d 2db9
000000b0: 40c7 43b9 5cc5 82b9 a5ce 43bc 521a 8fbb
000000c0: 1af1 25ba 72a1 2c3a 548c 6fbb dbd3 bf3b
000000d0: 4e87 90ba 20f6 0439 a44b 4c3a baa0 353a
000000e0: 44a8 47bc 3d13 803a 6ed2 0cbb 5ca0 723a
000000f0: 381d 7739 e05c 05b9 06ea c3bb 85c9 91bc
00000100: 2ab4 343b 1d56 88bb c86b 3cbc 9464 48bc
00000110: c8fb dab9 ee78 58ba df3a 293c c0ae de37
00000120: 60f2 beb9 6241 2e3b f918 3f3c 9ac0 f13a
00000130: c74a 8fba 2921 543c b689 2b3a 44d9 ec39
00000140: 68a5 4f3a 1453 21ba 9f8a 483c 8cb8 03ba
00000150: 75c1 2d3c 0ca7 4e3c 403e 4bb8 30a8 97b8
00000160: 885c d9b9 a4fa ac39 4dda 513c d2b0 2c3c
00000170: 58bc 303b dd75 3a3c 0066 5e38 7cd2 5e3c
00000180: d0aa 2739 5850 33bc 9856 b939 9227 323c

encoder_z0.GRU_update.reset_gate.2.weight f4 [20, 100]
0.064112 -0.115752965 0.1861567 0.026486685 0.13142502 0.0065509025 0.055516627 0.0830695
0.0578554 -0.11181372 -0.13756281 0.08151381 0.15954971 -0.13326862 -0.025929885 -0.103235684
0.05270169 0.2426747 0.03563156 0.07097796 0.02675954 0.04174846 0.027065933 -0.26544875
-0.0044931094 -0.053200994 -0.18356192 0.22929524 0.15718755 -0.08984227 0.048912935 -0.12014965
0.086166754 -0.23092721 0.052052733 -0.0011708336 -0.11288469 0.1914472 -0.04835514 -0.049845602
-0.26512313 0.098111406 -0.17585085 0.066530444 0.032102097 0.033718813 0.13026077 0.020416953
0.058518507 0.12662901 -0.071027026 -0.25772387 -0.007344894 0.1271651 0.026268234 -0.0070502064
0.10227564 -0.014022948 -0.0542785 -0.047675125 -0.019163541 -0.09138244 -0.015371453 0.16664292
-0.080606155 0.096183605 0.09439317 -0.11633624 0.14765885 0.08028331 -0.09213311 -0.057488125
-0.042985484 -0.12732589 0.022527296 0.00073222327 -0.00079818047 -0.111586496 0.082101144 -0.050279517
0.10526308 4.8027374e-05 -0.19175859 -0.00676453 0.10046188 -0.061542746 0.18447381 -0.017743662
-0.16365835 -0.13922328 -0.06392198 -0.024047665 0.02894389 -0.03250123 0.09021676 -0.040425066
0.16862343 -0.080846734 -0.048407353 -0.10198699 -0.15056607 0.08131049 -0.12737113 0.33913773
0.045948673 0.023708228 -0.06463354 0.043537896 0.06972105 -0.0068951636 -0.16763249 -0.169048
0.08640631 0.0072775725 -0.07120822 0.022323819 0.08381472 -0.09804702 0.057839278 -0.07716018
0.13528576 0.028683895 -0.11135698 -0.18675542 -0.017776698 0.1614558 -0.023996357 -0.09136205
0.20769462 0.045186758 -0.046079665 0.22044915 0.024340423 0.07256622 -0.15491493 0.010692517
-0.091482565 -0.09953988 0.093809366 -0.1254996 0.13883746 -0.027027037 0.022862477 -0.104358956
-0.11281769 0.13395771 -0.1685708 0.07174092 0.17829444 -0.016429946 0.030494766 -0.04874561
0.0067769457 -0.24987404 -0.05472684 -0.10679412 -0.028450284 0.093435355 0.08730459 -0.04676991
0.007277528 -0.035178956 0.063943915 -0.0190426 -0.054053858 -0.034510758 0.086545914 0.13872302
0.18389592 -0.0038430118 -0.14364745 0.01820784 -0.017852796 0.03143344 -0.22064498 -0.067730874
0.09450119 -0.12105227 -0.08496387 -0.10583009 -0.07056616 0.117169805 -0.1253433 -0.12684932
-0.20643044 -0.060305413 -0.24544634 0.02698153 0.12040593 0.0028241002 -0.21276888 0.003474736
0.024114083 -0.05572677 -0.046148382 -0.035478994 0.027257973 0.061193246 -0.074659355 0.04173944
0.07860127 -0.17229971 -0.014541607 -0.096104816 -0.015450012 0.1836874 0.0005761143 0.096796125
-0.041294668 0.1155016 0.056736577 0.06420789 0.14377956 -0.05050078 -0.19105877 0.08578695
-0.20229913 0.10436713 -0.117314026 -0.001623308 0.027869146 0.0007921398 -0.11450107 0.053950597
-0.08751269 -0.06913112 0.043190915 -0.012488432 0.033416867 -0.08558494 -0.11476407 0.15954606
-0.1358119 0.067425 0.026729682 0.003875308 0.12680185 -0.061175443 -0.015232229 0.11400375
0.064955875 -0.07423819 0.0014161111 -0.027453005 0.02516007 0.084131435 -0.20207395 -0.039236594
-0.08733216 0.053995702 -0.17926003 -0.16463698 -0.009127202 0.1143634 -0.16956756 -0.004244446
00000000: 274d 833d e40f edbd dd9f 3e3e 9bfa d83c
00000010: 4894 063e f4a8 d63b 6765 633d 5820 aa3d
00000020: c9f9 6c3d 97fe e4bd 44dd 0cbe b6f0 a63d
00000030: 0061 233e 9277 08be e96a d4bc 3b6d d3bd
00000040: badd 573d b77f 783e 66f2 113d e55c 913d
00000050: d336 db3c 6f00 2b3d 60b9 dd3c e6e8 87be
00000060: ef3a 93bb 49e9 59bd a8f7 3bbe 5fcc 6a3e
00000070: c6f5 203e 39ff b7bd ee58 483d 0511 f6bd
00000080: 3278 b03d 2f78 6cbe 3f35 553d a876 99ba
00000090: 1730 e7bd bc0a 443e 0a10 46bd e72a 4cbd
000000a0: 38be 87be a2ee c83d 3f12 34be 1d41 883d
000000b0: 7d7d 033d bd1c 0a3d 1463 053e 7441 a73c
000000c0: 1ab1 6f3d 09ab 013e 9e76 91bd 62f4 83be
000000d0: 70ad f0bb 9137 023e 7b30 d73c 6b05 e7bb
000000e0: e475 d13d 82c0 65bc 2253 5ebd fe46 43bd
000000f0: dcfc 9cbc b726 bbbd 8cd8 7bbc 71a4 2a3e
00000100: d714 a5bd e9fb c43d 3551 c13d b241 eebd
00000110: e233 173e 936b a43d 49b0 bcbd ab78 6bbd
00000120: 8c11 30bd b861 02be 2a8b b83c acf2 3f3a
00000130: fc3c 51ba 7687 e4bd a524 a83d e5f1 4dbd
00000140: 2b94 d73d 0071 4938 5d5c 44be fea8 ddbb
00000150: f5be cd3d 3f14 7cbd b4e6 3c3e 285b 91bc
00000160: 0e96 27be 8c90 0ebe 87e9 82bd 9cff c4bc
00000170: bd1b ed3c 0220 05bd 91c3 b83d c194 25bd
00000180: 9fab 2c3e f992 a5bd ca46 46bd 8ede d0bd
00000190: fe2d 1abe 1d86 a63d 946d 02be 76a3 ad3e
000001a0: ad34 3c3d c237 c23c 975e 84bd cb54 323d
000001b0: e9c9 8e3d d3f0 e1bb daa7 2bbe eb1a 2dbe
000001c0: cbf5 b03d b478 ee3b 9ed5 91bd 71e0 b63c
000001d0: 0da7 ab3d e0cc c8bd e1e8 6c3d 2806 9ebd
000001e0: 5a88 0a3e 7dfa ea3c 210f e4bd d03c 3fbe
000001f0: 70a0 91bc ab54 253e 0294 c4bc 071c bbbd
00000200: e6ad 543e c015 393d 08be 3cbd 6cbd 613e
00000210: 9165 c73c 999d 943d 05a2 1ebe ab2f 2f3c
00000220: 365b bbbd 91db cbbd 201f c03d f882 00be
00000230: 682b 0e3e ce67 ddbc 174a bb3c 26ba d5bd
00000240: f60c e7bd 362c 093e d39d 2cbe e7ec 923d
00000250: d192 363e 1898 86bc 29d0 f93c 7aa9 47bd
00000260: 2411 de3b fbde 7fbe 4029 60bd e0b6 dabd
00000270: 9210 e9bc 095b bf3d c0cc b23d ce91 3fbd
00000280: 5478 ee3b cf17 10bd 07f5 823d 3aff 9bbc
00000290: 9467 5dbd 275b 0dbd fc3e b13d 680d 0e3e
000002a0: 364f 3c3e 0adb 7bbb 5118 13be 9c28 953c
000002b0: 0740 92bc 5ac0 003d c2f0 61be 7cb6 8abd
000002c0: d789 c13d 41ea f7bd 8a01 aebd 72bd d8bd
000002d0: fe84 90bd b9f6 ef3d fe59 00be cae4 01be
000002e0: 8062 53be cf02 77bd 4956 7bbe 5f08 dd3c
000002f0: 6297 f63d 8a14 393b 16e0 59be 65b8 633b
00000300: e68a c53c c141 64bd 1606 3dbd 6c52 11bd
00000310: 1d4c df3c c5a5 7a3d 01e7 98bd faf6 2a3d
00000320: b4f9 a03d 566f 30be ec3f 6ebc 9ad2 c4bd
00000330: 0c22 7dbc 8d18 3c3e 6006 173a 0c3d c63d
00000340: 9924 29bd 1a8c ec3d 9d64 683d 6d7f 833d
00000350: f33a 133e e8d9 4ebd e9a4 43be 12b1 af3d
00000360: 8127 4fbe 6fbe d53d 5642 f0bd 2ec5 d4ba
00000370: d64d e43c 9aa7 4f3a 897f eabd 4dfb 5c3d
00000380: da39 b3bd 9e94 8dbd f5e8 303d 489c 4cbc
00000390: 20e0 083d 2847 afbd 6d09 ebbd 0b60 233e
000003a0: 4612 0bbe 1e16 8a3d 35f8 da3c e1f8 7d3b
000003b0: 58d8 013e 1a93 7abd 9990 79bc cc7a e93d
000003c0: 9607 853d 310a 98bd ce9c b93a 20e5 e0bc
000003d0: 7e1c ce3c 1a4d ac3d 79ec 4ebe 8db6 20bd
000003e0: 34db b2bd 992a 5d3d f18f 37be 9996 28be
000003f0: 438a 15bc 5c37 ea3d 1ea3 2dbe fe14 8bbb

encoder_z0.GRU_update.reset_gate.2.bias f4 [20]
-0.012764234 -0.012322262 0.004267572 0.0133393 -0.01281872 -3.4060795e-05 -0.0006203414 -0.0109692635
-0.00015566603 -0.014696416 -0.00056897954 -0.0009412066 -0.0074399887 -0.011716333 0.00067925476 -0.001593775
0.00037336792 -0.013408162 -1.5081954e-05 -0.007831509
00000000: 1421 51bc 50e3 49bc fdd6 8b3b 148d 5a3c
00000010: 9c05 52bc 80dc 0eb8 689e 22ba 6db8 33bc
00000020: 483a 23b9 3dc9 70bc 9227 15ba 4ebb 76ba
00000030: 26cb f3bb ddf5 3fbc 0410 323a 37e6 d0ba
00000040: 98c0 c339 e8ad 5bbc 8008 7db7 bb4f 00bc

encoder_z0.GRU_update.new_state_net.0.weight f4 [100, 44]
0.063649 0.018156748 -0.21002707 0.042521052 0.009170566 -0.078030914 0.23677169 -0.05818372
0.035229612 0.00032051164 -0.11004324 -0.0313012 0.11424028 0.05121056 0.08997605 -0.029127672
0.16450517 -0.10957558 0.15152311 -0.00032362517 -0.21133056 0.123581365 -0.056594938 -0.007509732
0.045041304 -0.21593417 0.08998047 0.13848513 0.06799159 -0.12966211 0.07997971 0.08178996
0.057133015 -0.021786392 0.16224381 0.09279241 0.09583992 0.071299285 -0.01894642 -0.064311706
0.11249807 -0.008884054 -0.22113076 0.10407719 0.07582933 0.119334534 -0.15156719 -0.06679955
-0.13537803 0.11071966 -0.056751873 -0.19879596 -0.16230887 0.03962707 0.04780328 -0.093056135
-0.09319797 0.07051749 0.035525393 0.0013698542 -0.051617607 -0.04350519 -0.14493866 0.124158464
-0.09371707 0.019496815 0.18310592 -0.010671344 0.113773994 -0.07207245 -0.060260344 0.009640465
0.08442793 -0.099496074 0.06170158 -0.063278414 0.035451125 -0.033298444 0.19491762 -0.053857885
-0.1001112 -0.010566364 0.019794958 0.09541964 -0.1749511 -0.18417658 0.08746294 -0.08225481
-0.070800334 -0.008437592 0.100313194 0.09450143 -0.21216235 -0.018904943 -0.07834512 -0.008909659
-0.005276202 0.03852439 0.175489 -0.00071954646 -0.043852884 -0.052862085 0.0024891603 -0.010169357
-0.20573418 -0.046198826 -0.07657392 -1.47846295e-05 0.10473134 -0.030954085 0.09476147 -0.091719426
-0.019803151 0.035850126 0.053864945 0.03715833 -0.012218304 -0.07527945 0.037356965 -0.040470634
-0.027169976 -0.09813296 0.0783505 0.1921767 -0.15897669 -0.056947123 0.11316736 -0.113777585
-0.075731374 0.0037457729 0.06915624 0.013587675 -0.011811977 -0.055947416 0.11432911 0.03647796
-0.0482251 -0.05212674 -0.14159924 0.15725493 0.07038883 -0.04388053 -0.066071235 0.18253773
-0.0017150715 0.05070103 0.058653206 0.0684184 -0.03836811 -0.02199565 -0.015793767 -0.09990063
0.100635454 0.000319283 -0.16412237 0.065977186 0.07995915 -0.056323424 0.059982207 -0.015831154
-0.05228244 0.08091549 -0.029449629 -0.041034948 0.11878194 -0.09754219 0.03203131 0.18990766
0.07660318 -0.23097225 0.046316866 -0.08446209 -0.038221482 -0.09040175 -0.031234225 -0.15291135
-0.020685306 0.14977339 0.15472819 0.0684949 0.0886933 -0.16993986 -0.07572126 0.013234235
-0.046946734 -0.094515726 -0.08693557 0.033807646 -0.13296968 -0.0784166 -0.07018181 0.013743556
-0.06712897 -0.10672912 0.10605286 0.106630616 0.14138171 -0.041536815 -0.009413648 0.050352544
0.013856996 -0.029983338 0.07891618 -0.077901796 0.07762084 -0.054054182 0.14790288 -0.14716278
-0.044373102 0.004335517 -0.1284761 -0.061473597 0.029443895 -0.05207911 0.043303527 0.03475232
0.0066484483 0.07712316 -0.20088813 -0.09467434 0.1803463 0.07661194 0.06273735 0.060455702
-0.09582742 -0.0892792 0.01959407 0.113831826 -0.10666395 0.07047521 0.27588764 -0.121472545
-0.009451036 -0.2964233 0.028454488 -0.13595368 0.0472163 -0.06147532 0.055935454 -0.033370063
0.045251343 0.07734408 -0.08070594 -0.11478981 0.015063166 0.07319852 0.028168138 0.0405388
0.096859366 0.12809846 0.0736623 -0.23187624 -0.06302241 -0.008671616 -0.023868099 -0.14143552
00000000: 685a 823d 76bd 943c 5611 57be 8e2a 2e3d
00000010: 2440 163c acce 9fbd 4774 723e 0d52 6ebd
00000020: ed4c 103d 580a a839 5a5e e1bd b035 00bd
00000030: cff6 e93d 2ac2 513d 5d45 b83d 289d eebc
00000040: 0b74 283e 2969 e0bd e028 1b3e 3cac a9b9
00000050: 0a67 58be 3a18 fd3d 18d0 67bd 3314 f6bb
00000060: 3b7d 383d d91d 5dbe ae47 b83d 0ccf 0d3e
00000070: 2d3f 8b3d 25c6 04be 67cc a33d 7f81 a73d
00000080: 4f04 6a3d 6079 b2bc 3e23 263e f209 be3d
00000090: b847 c43d 5c05 923d 8635 9bbc dbb5 83bd
000000a0: 6365 e63d 6c8e 11bc 1a70 62be 6c26 d53d
000000b0: 684c 9b3d aa65 f43d 6e34 1bbe 34ce 88bd
000000c0: 8aa0 0abe fdc0 e23d a774 68bd 2b91 4bbe
000000d0: 4c34 26be ff4f 223d 5fcd 433d 3794 bebd
000000e0: 94de bebd 796b 903d 1383 113d ae8c b33a
000000f0: fc6c 53bd 8032 32bd cd6a 14be cb46 fe3d
00000100: bcee bfbd c9b7 9f3c 1e80 3b3e dcd6 2ebc
00000110: 5702 e93d b89a 93bd 8dd3 76bd 0af3 1d3c
00000120: 8de8 ac3d 99c4 cbbd ccba 7c3d 1d98 81bd
00000130: 3335 113d f363 08bd 7c98 473e 169a 5cbd
00000140: 1a07 cdbd 8b1e 2dbc 0929 a23c 5f6b c33d
00000150: 6226 33be c998 3cbe c51f b33d 3675 a8bd
00000160: c4ff 90bd d33d 0abc 0171 cd3d f789 c13d
00000170: 1641 59be 8ade 9abc 6873 a0bd d2f9 11bc
00000180: fee3 acbb c0cb 1d3d 63b3 333e f29f 3cba
00000190: 159f 33bd ea85 58bd 2e21 233b 609d 26bc
000001a0: fbab 52be fb3a 3dbd cad2 9cbd 800b 78b7
000001b0: 637d d63d 6c93 fdbc 4d12 c23d 65d7 bbbd
000001c0: 383a a2bc 95d7 123d 7da1 5c3d 5533 183d
000001d0: 482f 48bc 1d2c 9abd 9e03 193d 89c4 25bd
000001e0: 9293 debc eff9 c8bd 3a76 a03d f8c9 443e
000001f0: c9ca 22be 6341 69bd 4ac4 e73d 3904 e9bd
00000200: 0d19 9bbd a47b 753b c9a1 8d3d d79e 5e3c
00000210: 0687 41bc 1e29 65bd 6125 ea3d ea69 153d
00000220: af87 45bd d982 55bd 64ff 10be 7007 213e
00000230: 0528 903d 12bc 33bd 5b50 87bd 2ceb 3a3e
00000240: 40cc e0ba e2ab 4f3d 583e 703d f21e 8c3d
00000250: e127 1dbd 3930 b4bc ee61 81bc b498 ccbd
00000260: f619 ce3d 7065 a739 b20f 28be 0c1f 873d
00000270: 9fc1 a33d 64b3 66bd e7af 753d 56b0 81bc
00000280: 1d26 56bd 05b7 a53d 5940 f1bc 4314 28bd
00000290: f243 f33d 33c4 c7bd 4333 033d 2777 423e
000002a0: 21e2 9c3d fd83 6cbe c1b6 3d3d 76fa acbd
000002b0: 218e 1cbd 8d24 b9bd ebde ffbc cb94 1cbe
000002c0: 3b74 a9bc 325e 193e 1171 1e3e 0e47 8c3d
000002d0: d5a4 b53d b704 2ebe bf13 9bbd 68d4 583c
000002e0: 384b 40bd 7691 c1bd 470b b2bd e379 0a3d
000002f0: 3429 08be e298 a0bd 7bbb 8fbd a72c 613c
00000300: ea7a 89bd cc94 dabd 3e32 d93d 2761 da3d
00000310: 5ec6 103e 8222 2abd b43b 1abc 783e 4e3d
00000320: 7408 633c 9e9f f5bc ce9e a13d fa8a 9fbd
00000330: adf7 9e3d eb67 5dbd da73 173e d7b1 16be
00000340: 92c0 35bd f410 8e3b 3d8f 03be bdcb 7bbd
00000350: 5334 f13c e850 55bd 0a5f 313d 7358 0e3d
00000360: 3adb d93b bff2 9d3d 9eb5 4dbe 9fe4 c1bd
00000370: b3ac 383e b9e6 9c3d 717c 803d 66a0 773d
00000380: 2b41 c4bd 03d8 b6bd be83 a03c a920 e93d
00000390: a172 dabd 4f55 903d 2541 8d3e 99c6 f8bd
000003a0: 85d8 1abc cbc4 97be 6319 e93c 7137 0bbe
000003b0: e165 413d 8ccd 7bbd 931c 653d 0caf 08bd
000003c0: 7959 393d 9366 9e3d 2849 a5bd eb16 ebbd
000003d0: 7fcb 763c 1be9 953d dec0 e63c 030c 263d
000003e0: 345e c63d 3e2c 033e 43dc 963d f770 6dbe
000003f0: e511 81bd 6513 0ebc 0887 c3bc 79d4 10be

encoder_z0.GRU_update.new_state_net.0.bias f4 [100]
0.011339862 0.0013712288 0.009296145 -0.014253874 0.010529472 -0.000915846 0.0010272864 0.0015100584
0.0018305102 -0.0008741871 0.009029236 -0.013270116 0.0120797735 0.000566751 0.000777218 -0.00018684915
-0.0005387217 -0.00041199103 -0.0012912384 0.010175643 -0.00036666333 0.0040893094 -0.015510431 -0.0003408891
0.001289875 0.00046276604 -0.00023229152 0.012212924 -0.0030561385 -0.0013076104 -0.013105782 0.012084127
0.0013031944 0.006363822 -0.00019390706 -0.014428263 -0.00060891965 0.0115712155 -0.0002787949 -0.008939894
-0.0015845518 0.00018987956 -0.013083153 0.008944288 -0.00014650216 0.0007173306 -0.010975995 0.002375148
0.01371203 -0.003591769 -0.00047026924 -0.0005096317 -0.0034247474 -0.00014800963 0.00110428 0.011001549
-0.012209786 0.0003551743 -0.0013290965 0.01060932 -0.013696386 -0.006059741 0.0011759275 0.0005272755
-0.013039017 0.0006229194 0.0006150311 -0.0009279285 -0.000826088 0.00069803116 0.011450068 0.0008566618
0.00041754788 -0.013030018 0.00069996633 -0.013860371 -0.0009978282 -0.015901087 -8.756854e-05 0.0008624854
0.00039010984 0.012172968 -0.0010117486 0.011540083 -0.015603264 -0.0005626767 -0.004183442 -0.010653523
-0.009115351 0.001418097 -0.014500842 -0.0021943187 -0.012409926 -0.01576853 -0.001632071 0.00018821156
-0.00067034725 -0.010664191 0.00059883355 0.0010151032
00000000: d4ca 393c ceba b33a dc4e 183c 1589 69bc
00000010: ce83 2c3c 6215 70ba 03a6 863a 27ed c53a
00000020: bbed ef3a b429 65ba 5cef 133c e76a 59bc
00000030: 3eea 453c 0492 143a 38be 4b3a f0ec 43b9
00000040: 0039 0dba 8000 d8b9 c53e a9ba bdb7 263c
00000050: b83c c0b9 9dff 853b 761f 7ebc 5cb9 b2b9
00000060: 0611 a93a 689f f239 4893 73b9 b718 483c
00000070: 7f49 48bb 2064 abba a2b9 56bc 81fc 453c
00000080: f3cf aa3a 9c87 d03b 8853 4bb9 8564 6cbc
00000090: e89f 1fba 3295 3d3c 382b 92b9 a278 12bc
000000a0: bcb0 cfba 681a 4739 b95a 56bc 108b 123c
000000b0: 609e 19b9 3e0b 3c3a a9d4 33bc 5fa8 1b3b
000000c0: 6ca8 603c e263 6bbb 788e f6b9 ce98 05ba
000000d0: ba71 60bb 0833 1bb9 7dbd 903a d73f 343c
000000e0: 8e0b 48bc b036 ba39 1435 aeba b7d2 2d3c
000000f0: ce66 60bc cb90 c6bb 9421 9a3a dc38 0a3a
00000100: 9aa1 55bc 6a4b 233a 0a3a 213a 3a40 73ba
00000110: d48d 58ba 14fc 363a 1199 3b3c 9a91 603a
00000120: 54ea da39 db7b 55bc f27d 373a 9c16 63bc
00000130: 8fc9 82ba ff42 82bc 00a5 b7b8 6a18 623a
00000140: a887 cc39 2171 473c a69c 84ba 9e12 3d3c
00000150: d5a4 7fbc 9880 13ba 4115 89bb 1d8c 2ebc
00000160: 8e58 15bc 70df b93a f194 6dbc 8fce 0fbb
00000170: 0153 4bbc 012d 81bc 37eb d5ba a85a 4539
00000180: 3eba 2fba dcb8 2ebc 0afb 1c3a 360d 853a

encoder_z0.GRU_update.new_state_net.2.weight f4 [40, 100]
0.030021228 -0.0994871 0.18465047 0.05081141 0.13980637 0.0067538973 0.0012404135 0.01085767
-0.015831722 0.114520185 0.11547575 0.055408485 0.009030768 -0.1613448 -0.069964305 0.0054535065
-0.089913584 0.076121196 0.082453094 0.14372537 -0.011376718 0.01951273 0.037450254 0.18895867
0.07435888 0.030378863 0.06047871 -0.23055129 -0.08156298 0.029018518 0.19523992 0.10268502
0.16171171 0.11348045 -0.047219157 0.15724388 0.0464977 -0.048866183 0.103163004 -0.058459777
-0.17654967 -0.051439766 -0.18154618 0.10109013 0.033980872 0.10938784 -0.011522299 0.03516991
0.08656724 -0.28979284 0.011764325 -0.04700452 -0.102023974 0.0011119416 -0.03560845 0.062970825
-0.086363696 -0.067996055 -0.026044184 0.1471593 0.015533794 -0.05889258 -0.083330184 -0.019228877
-0.0983655 -0.04075393 -0.065414235 0.04822313 0.07445368 0.025272343 -0.0328132 0.0019603
0.010878012 -0.08473281 -0.09148269 -0.07287654 -0.27171487 0.14702448 0.0024532494 0.011568101
0.07553951 0.11120927 0.050853707 -0.15289673 -0.100877985 -0.2972427 0.036253568 0.02548843
0.047358755 -0.1702075 0.14620893 -0.108918674 -0.06585465 0.10114397 0.20749338 0.018557284
0.016495248 -0.16396144 0.013775082 0.06905788 -0.038739007 0.076482326 0.09622618 -0.08124493
0.022923332 0.023527518 0.008142662 -0.082625605 -0.0348702 -0.008965459 0.02757568 -0.1918257
0.055533037 -0.13358755 -0.097985975 -0.11434024 -0.12748326 0.15756442 -0.02866304 -0.018104784
-0.10399957 0.007267126 0.04546521 -0.0010441097 -0.043122876 -0.01536859 -0.1793047 -0.15251546
-0.05505419 -0.0065479865 -0.15027097 0.110480994 -0.099256665 -0.042562436 -0.15691999 -0.16020477
0.0057545993 -0.13386539 0.092529885 0.002977098 0.062572554 -0.13021511 -0.034311544 0.036226332
-0.050711647 0.015473467 -0.11692213 0.0044586477 -0.001416306 -0.05069588 -0.081844255 -0.07535131
0.013023928 -0.06311339 0.07222587 0.09408505 -0.05677576 -0.1088675 0.04751908 0.033098813
-0.051367506 -0.017189013 0.06478644 -0.116091356 -0.14659236 0.13766342 -0.05746271 0.009992542
-0.12281845 0.010522882 0.008969094 -0.014899389 0.072679035 0.08757997 -0.04722543 0.19691761
0.014331097 -0.051161587 -0.22819693 0.07869781 -0.11294593 0.0047167516 -0.031454623 -0.030219682
-0.07195991 -0.059409533 0.019271553 0.04628936 0.010875387 -0.11716376 0.024599073 -0.11937374
0.12769853 0.059449352 -0.15829806 0.049108207 -0.08220932 -0.17834875 -0.02469937 0.19793296
0.120363034 0.16671257 0.030134035 0.19284375 0.09500607 0.14767954 0.06757106 0.15475585
0.0771271 -0.009751017 0.14414655 0.042697903 0.04470765 -0.10770953 0.035098065 0.051653177
0.07543432 -0.0064986562 0.13770865 0.009106379 0.14579314 -0.06493769 -0.13537902 -0.107806064
0.11187738 0.17440794 -0.10656326 0.043324247 0.071705975 -0.16704755 -0.010529416 -0.06726042
0.16557108 -0.1175404 -0.20512615 0.08648188 -0.16420037 -0.057021197 0.023527902 -0.18488985
0.059531607 -0.002500886 -0.013437403 -0.011502934 0.18319628 0.1873742 -0.062936865 -0.07287943
0.04025716 -0.02873196 -0.034014374 -0.029534498 -0.119268484 0.060696665 0.004687711 0.025341455
00000000: 14ef f53c e5bf cbbd 0315 3d3e a01f 503d
00000010: 6729 0f3e cc4f dd3b 5f95 a23a 5ee4 313c
00000020: 87b1 81bc 8f89 ea3d 8d7e ec3d 02f4 623d
00000030: c9f5 133c 9237 25be 7249 8fbd 54b3 b23b
00000040: 9d24 b8bd 6ee5 9b3d 2bdd a83d be2c 133e
00000050: 6a65 3abc 29d9 9f3c 7065 193d 627e 413e
00000060: 7849 983d 18dd f83c 86b8 773d a315 6cbe
00000070: 7e0a a7bd 3eb8 ed3c f9ec 473e 864c d23d
00000080: c197 253e 7068 e83d e068 41bd 8a04 213e
00000090: 5f74 3e3d e827 48bd 2047 d33d 8573 6fbd
000000a0: 70c9 34be 81b2 52bd 3ee7 39be 5808 cf3d
000000b0: 872f 0b3d bb06 e03d 06c8 3cbc 530e 103d
000000c0: 2a4a b13d ba5f 94be 28bf 403c d087 40bd
000000d0: f2f1 d0bd 92be 913a 2bda 11bd d9f6 803d
000000e0: 73df b0bd 8441 8bbd 9d5a d5bc edb0 163e
000000f0: 7481 7e3c 5939 71bd 04a9 aabd e185 9dbc
00000100: da73 c9bd 98ed 26bd e6f7 85bd 9e85 453d
00000110: 2c7b 983d f207 cf3c 2267 06bd 6078 003b
00000120: b039 323c 6588 adbd 475b bbbd 4c40 95bd
00000130: 361e 8bbe 968d 163e b2c6 203b 2288 3d3c
00000140: 75b4 9a3d b0c1 e33d fa4b 503d f690 1cbe
00000150: 1e99 cebd 3230 98be 9f7e 143d 1dcd d03c
00000160: 41fb 413d e04a 2ebe cbb7 153e c110 dfbd
00000170: cede 86bd 9224 cf3d 2579 543e 7205 983c
00000180: 0b21 873c 82e5 27be e2b0 613c 386e 8d3d
00000190: cbac 1ebd c4a2 9c3d 3b12 c53d be63 a6bd
000001a0: b6c9 bb3c c8bc c03c cd68 053c 9d37 a9bd
000001b0: 0ed4 0ebd dce3 12bc 64e6 e13c f56d 44be
000001c0: 9c76 633d 2dcb 08be dfac c8bd 372b eabd
000001d0: f98a 02be 9158 213e c0ce eabc 7c50 94bc
000001e0: bafd d4bd 1221 ee3b ba39 3a3d 82da 88ba
000001f0: 9da1 30bd 8acc 7bbc a79b 37be 032d 1cbe
00000200: 8180 61bd 7e90 d6bb a2e0 19be dc43 e23d
00000210: 1447 cbbd f355 2ebd a2af 20be b80c 24be
00000220: 1491 bc3b 0214 09be 4f80 bd3d 6b1b 433b
00000230: 0a26 803d 1c57 05be 438a 0cbd 1062 143d
00000240: 04b7 4fbd 6d84 7d3c df74 efbd d919 923b
00000250: 58a3 b9ba 7ca6 4fbd f69d a7bd ca51 9abd
00000260: 5062 553c 9841 81bd 28eb 933d aaaf c03d
00000270: b38d 68bd edf5 debd 5ea3 423d 9f92 073d
00000280: bc66 52bd f9cf 8cbc c1ae 843d 4ec1 edbd
00000290: 4f1c 16be a4f7 0c3e 055e 6bbd c2b7 233c
000002a0: 3d88 fbbd 2b68 2c3c 1bf3 123c 911c 74bc
000002b0: bfd8 943d 215d b33d 746f 41bd c5a4 493e
000002c0: facc 6a3c d08e 51bd 75ac 69be 512c a13d
000002d0: 3250 e7bd fb8e 9a3b 90d6 00bd 448f f7bc
000002e0: b85f 93bd 6957 73bd 60df 9d3c e999 3d3d
000002f0: ae2e 323c 8ef3 efbd ff83 c93c 387a f4bd
00000300: 67c3 023e 2a81 733d e318 22be b025 493d
00000310: 5c5d a8bd 0ea1 36be 5556 cabc f0ae 4a3e
00000320: e580 f63d b3b6 2a3e a7db f63c d578 453e
00000330: 8b92 c23d 4e39 173e b262 8a3d 5178 1e3e
00000340: d0f4 9d3d bbc2 1fbc 279b 133e ffe3 2e3d
00000350: 5e1f 373d d096 dcbd fdc2 0f3d 4892 533d
00000360: 4f7d 9a3d aef2 d4bb 7f03 0d3e ec32 153c
00000370: cc4a 153e 0dfe 84bd cca0 0abe 6dc9 dcbd
00000380: f81f e53d ff97 323e d73d dabd c474 313d
00000390: 95da 923d 830e 2bbe 9283 2cbc d5bf 89bd
000003a0: 778b 293e 05b9 f0bd 970c 52be 691d b13d
000003b0: 2424 28be 0f8f 69bd 96bd c03c c453 3dbe
000003c0: 6ad7 733d e8e5 23bb 8e28 5cbc cd76 3cbc
000003d0: ce97 3b3e 06df 3f3e 0be5 80bd d041 95bd
000003e0: b1e4 243d 4a5f ebbc a852 0bbd 55f2 f1bc
000003f0: 0943 f4bd 119d 783d 5f9b 993b e298 cf3c

encoder_z0.GRU_update.new_state_net.2.bias f4 [40]
2.166396e-05 0.012399591 0.00057987357 0.0053611225 -0.00038578024 0.00049006846 -0.007761944 -0.0006947033
0.00029325124 -0.0012145106 0.00036924996 0.015494957 -0.0011697367 -0.0002033211 0.016820308 0.006790056
0.00062584796 2.2028806e-05 -0.011374508 -0.0024625496 0.005627599 0.0012436432 0.0064722523 -0.0006525526
0.0017983997 -0.006120362 -0.008929561 0.010641869 -0.006995572 -0.0015150006 -0.001370033 0.007949382
0.00036278844 0.0020546431 0.0004248371 0.00033857126 0.0035591128 -0.0011170898 -0.0013787948 -0.0009795079
00000000: 00bb b537 a727 4b3c a802 183a 5bac af3b
00000010: 8c42 cab9 f077 003a e857 febb c01c 36ba
00000020: 84bf 9939 3730 9fba e497 c139 8fde 7d3c
00000030: da51 99ba 9832 55b9 beca 893c 1e7f de3b
00000040: f20f 243a 80ca b837 255c 3abc ba62 21bb
00000050: b967 b83b be01 a33a 3015 d43b 1010 2bba
00000060: 48b8 eb3a 518d c8bb 4b4d 12bc 3c5b 2e3c
00000070: 1c3b e5bb fc92 c6ba ae92 b3ba 203e 023c
00000080: a434 be39 31a7 063b acbc de39 4482 b139
00000090: 0140 693b 506b 92ba adb8 b4ba d562 80ba
